saved_models/Flame_one_stream_rgb_index0_epoch35_final.pth (torch, 20887 bytes, 34 tensors)

IN.0.weight f4 [8, 3, 3, 3]
00000000: 147b a63c 468e 723c 79f8 43be 92c3 033e
00000010: 9042 c43d 2c60 133e 63de 17be c0ac 91bd
00000020: f999 3cbd 29c7 873d a91a bdbd 8a91 d8bd
00000030: b47e 2a3e cbb7 65bd 5253 00be c074 6a3d
00000040: dd18 643d 14db 88bd ab67 9bbc 9620 efbc
00000050: a722 27be 4d08 133d cb3e 9ebd 495c c0bd
00000060: df92 443e 7ae7 f13b ea64 393c 17ce 453d
00000070: b6e9 2abe 927c 4abd f174 5dbe f116 833b
00000080: 8457 7e3c dd04 c83b 8f7b 8fbc fc30 153d
00000090: b99c 26bd 30b1 bc3d 24cb 523d 5d42 3b3d
000000a0: bb5c 413c ee0d 5f3e db82 e0bd 5306 613d
000000b0: a80e ea3d 04da 30be 58e5 7a3d f2ea 303c
000000c0: daab 9f3d 4d44 f83d b5d2 263e c0d3 733d
000000d0: 7983 833c 9b12 373e 1bf1 11be 2ca3 97bb
000000e0: aa91 2ebd 81f0 3bbe 777e d63d c16a 28bd
000000f0: a14f 373c 4830 24be f2bc 713d fbb6 823d
00000100: 9906 02be 77b1 ffbd 7765 dfbd 20c0 c03d
00000110: cf59 9a3d e81a ab3d d941 52bd 3eb1 1c3e
00000120: 3b33 1b3e f52e dbbd 5542 b7bd 40fe 3bbd
00000130: bf14 1d3e 521e 7c3d d04d 1a3e c989 3b3c
00000140: 9d33 fc3d 2538 a73d ddb7 bebc cc19 2e3e
00000150: 408f 06be e8be 263e 2abb 0cbc b994 f83c
00000160: 713f 33bd c4e8 4e3e d6c3 dd3c 2145 003e
00000170: eaff 133e a81b 20be d4ba df3c 6a5b 90bd
00000180: 3a5b cfbd bdaa 1f3e 792f bd3d dac1 0e3e
00000190: 8a3d d53d fa36 a13d cd8c e8bd 4e79 1ebe
000001a0: d546 1a3d 629e fdbd 8fb2 c3bd c33f d93d
000001b0: e1d1 35be e00c 843d 8e28 b73d d2da a63d
000001c0: b34f c63d de3f 30bd bb9c 103e 91e1 15bb
000001d0: 87b5 e93d a304 213e bb13 b53a d551 05be
000001e0: 96c3 da3d aa3a 17be 657c 23bd 02aa f4bd
000001f0: cc91 a8bd 3821 74bc 913a 35bd 8df8 2ebe
00000200: 18e8 873d c050 a7bd dcf7 b0bd 6117 d93c
00000210: 8bb6 013e 04ba 083e 5a95 95bd def9 d03d
00000220: e3ef 0b3e 6335 50bd 6160 37bd 4260 26be
00000230: 2290 293d bef9 84bd 77de 0abe 1cad fbbd
00000240: eadf 13be 577a 2bbe 4889 503e 5798 3e3e
00000250: cfbe d03c d048 16be 55c9 06bd a3d1 593c
00000260: 0c52 7f3d 16b3 153e 8429 df3d 4554 1fbc
00000270: 9887 25bd 3e3d 263d 093c b13b 505d 0f3d
00000280: c2d6 ef3d 7280 31be 9063 7d3e 991c 5e3e
00000290: a90e b93d 6d4b 3bbd b90c 4f3e ca92 643e
000002a0: f673 08be bf22 30bc f004 d7bd 6425 5aba
000002b0: 6d37 09be 4a36 80bd 9193 a5bd 2e0c 633d
000002c0: fe3d 3bbd e5ba f6bc 0071 133e 645c 76bd
000002d0: ec12 8b3d 6bd9 7ebd 68d3 21be e443 11be
000002e0: fef3 c93d 0384 bb3d 7fd0 a9bd e5f3 f33d
000002f0: 5784 e53d c454 c53d e606 48bd 0de6 04be
00000300: 1d87 2e3e b56a f4bc 4f08 97bd 118f 593e
00000310: 628a a8bc cc21 03be 7d42 74bd 6c34 003e
00000320: 2756 743d 3e13 0e3d b03f 003e ed5b fcbb
00000330: a8ad f83d 1aa6 a33d 0976 1fbe 0f0e fc3d
00000340: cf59 36be 8516 093d 3d28 c1bc a41b 33be
00000350: e3aa 3f3d 879a 83bc fea6 eb3d b161 893c
0.02032236 0.014804428 -0.19137754 0.12867573 0.09583008 0.14392155 -0.14830928 -0.071130276
-0.046045277 0.06629784 -0.09233601 -0.105746344 0.16649896 -0.05608348 -0.12531784 0.057240248
0.055687774 -0.06682411 -0.018970331 -0.029190343 -0.16321813 0.035896588 -0.077268206 -0.09392602
0.19196652 0.0073823305 0.011315564 0.048292246 -0.16690716 -0.049435206 -0.21626641 0.0040005376
0.015523795 0.0061040954 -0.017514972 0.03642367 -0.040676806 0.09213483 0.05146326 0.045717586
0.011801894 0.21782658 -0.10962459 0.054937672 0.11428577 -0.17270666 0.061253875 0.010798203
0.0779645 0.12122402 0.16291316 0.059528112 0.016053902 0.17878191 -0.1425213 -0.004627606
-0.042619385 -0.18353464 0.1047334 -0.041117433 0.011188419 -0.16034043 0.059018083 0.06382557
-0.1269783 -0.124850206 -0.10908025 0.09411645 0.07536661 0.08354741 -0.05133233 0.15301988
0.15156262 -0.10702316 -0.08948199 -0.04589677 0.15339945 0.061552353 0.15068746 0.011446425
0.12314532 0.081650056 -0.023281032 0.17002028 -0.13140583 0.16283762 -0.008589545 0.030344354
-0.043761674 0.2020598 0.02707092 0.1252637 0.14453092 -0.1563555 0.027310766 -0.07048686
-0.10124822 0.15592475 0.0923757 0.13941136 0.10412128 0.07871814 -0.113549806 -0.15475962
0.037665207 -0.12383725 -0.09555542 0.10607865 -0.17755844 0.06447768 0.08943282 0.081472054
0.0968317 -0.04302966 0.14122288 -0.0022870044 0.11411577 0.15724425 0.0013815084 -0.13019498
0.10681836 -0.14768472 -0.039913554 -0.11946489 -0.082309335 -0.014900498 -0.044245306 -0.17087002
0.06636065 -0.08169699 -0.086410254 0.026500406 0.12667291 0.1335221 -0.07303877 0.102039084
0.13665728 -0.050832164 -0.04476965 -0.16247657 0.04139722 -0.06492947 -0.13561426 -0.12288877
-0.14440885 -0.16745888 0.20364869 0.186128 0.02548161 -0.14676213 -0.03290685 0.01329461
0.062334105 0.14619097 0.1089659 -0.009724681 -0.040412515 0.04058575 0.005408768 0.0350011
0.11710884 -0.17334154 0.24745011 0.21690597 0.09035999 -0.04572623 0.20219697 0.2232162
-0.13325486 -0.010750472 -0.10498989 -0.00083216117 -0.1340005 -0.06260355 -0.08084787 0.055431537
-0.045713417 -0.030118415 0.14398575 -0.060146704 0.067907184 -0.062219065 -0.15803301 -0.14186054
0.09860991 0.091560386 -0.082917206 0.119117536 0.112068824 0.096353084 -0.048834704 -0.12978382
0.17043729 -0.029836038 -0.073746316 0.21245982 -0.020573799 -0.12805861 -0.05963372 0.12519997
0.059652474 0.03468632 0.12524295 -0.007701388 0.12142497 0.07990666 -0.1557237 0.12307369
-0.17807697 0.033468742 -0.023578757 -0.17491013 0.04679383 -0.016064895 0.115064606 0.016770216

IN.0.bias f4 [8]
00000000: 95db eebd aa28 423d c28e f6bd c80e b2bb
00000010: 5730 a83d 9116 59bb e96a 6dbd 9daa dcbd
-0.11662976 0.04740206 -0.12038948 -0.005433891 0.08212345 -0.0033125023 -0.057963286 -0.107747294

IN.1.weight f4 [8]
00000000: 3528 7a3f 214b 823f 63de 853f ee26 6e3f
00000010: 6254 833f 3081 6e3f 7cb9 743f d162 813f
0.977176 1.0179178 1.0458492 0.9302815 1.0260127 0.93165874 0.95595527 1.0108281

IN.1.bias f4 [8]
00000000: f56b d1bd aec7 63bd c909 24bd 254d a7bd
00000010: 492e f43c 3d5c abbd 1dc0 cb3c 2d8c e0ba
-0.10225669 -0.05561035 -0.040048394 -0.08169011 0.029807227 -0.083672024 0.02487188 -0.0017131619

IN.1.running_mean f4 [8]
00000000: 1c67 73be 086e cf3e d2e3 b2bd 5159 a93e
00000010: c9a4 a83d a22f 4ebd 530c 4e3e 3b8a 4d3d
-0.23769802 0.40513635 -0.087348595 0.33075956 0.08234555 -0.050338395 0.20121889 0.050180655

IN.1.running_var f4 [8]
00000000: d153 853b 1f55 bb3c 8038 5e3b d9f2 7b3c
00000010: 07c7 463a 0f58 a83a 4884 033c 98fc 963b
0.0040688296 0.022867737 0.0033908188 0.015377724 0.0007582758 0.0012843626 0.008027144 0.0046077482

IN_both.0.weight f4 [8, 6, 3, 3]
00000000: 7c2a af3d d4ed ec3d 50f5 6fbd a092 273c
00000010: 30ea 843d 2cf4 353d 7073 c4bd e9ce 05be
00000020: ae22 efbd 42c6 bc3d f84c b2bd 5699 b7bd
00000030: 3806 e73d a82f 073e 70d7 8cbc a6cf b93d
00000040: b0dc 8b3d 8056 1a3b 98e0 1fbd c53b 05be
00000050: e0cb cf3c 887b af3d a0c4 ad3d e021 803b
00000060: 8658 1ebd d0af 993d de56 73bd 1b2c b7bd
00000070: e063 733d c229 11bd 1f64 80bd 9ae7 3abd
00000080: 8239 b63d 60fa 9fbc da5b c33d a681 e73d
00000090: 4a8d a83d 7849 e7bd 5011 dabd feb2 7fbd
000000a0: d445 42bd f75e 93bd c20f 093e 24ca b1bc
000000b0: 2885 b83d 94d4 f8bc 9439 c6bc e801 e0bd
000000c0: 00fa b9bd c8a4 a43d 0ada a1bd 4092 673b
000000d0: 6c1a 97bd 32ad b73d 60d9 ef3b 626c acbd
000000e0: 04a3 6abd fcb1 bf3d 20e2 4d3c a069 5e3c
000000f0: b8c0 d53c 1a23 3abd 98dc 96bc d097 32bc
00000100: ac00 d43d 78d5 e2bd fd88 81bd e3b7 bebd
00000110: 48e3 d73d f4c8 c43d cceb 293d 1888 b5bd
00000120: e683 ca3d 38be d23d 625e 44bd 72ff 89bd
00000130: 50b4 763d bad4 003e 08fb f0bd 9ce8 0ebd
00000140: 0620 b2bd e4cd 563d 30a0 453d c2c4 4abd
00000150: a5d1 ffbd 218f a3bd 08fa d13d 3402 973d
00000160: 90d6 3c3d 2c7a c83d b3ed febd 480a debc
00000170: 0aa8 41bd 9257 083e a0f5 c13b 5606 07bd
00000180: 7241 e83d 70e0 d9bd ba96 a03d 94a5 413d
00000190: 64bb a9bd 38ed f3bc 7640 14bd 26d4 a6bd
000001a0: 80c7 94ba 44b7 76bd 00a7 e3ba 98f0 c73c
000001b0: a092 94bd 4058 65bd 8051 183d 1a1a 893d
000001c0: 7446 7abd d086 42bd 3eae f7bd ee6c 00be
000001d0: a8a3 58bc 805f e83c c094 67bd 38c4 92bc
000001e0: fc9b 483d 6ee7 84bd ec4a 383d e063 2e3d
000001f0: d428 e23d 46dc c4bd 3c40 043e 0089 083e
00000200: 0876 54bc 4091 b73b 54d9 f63d 3245 cabd
00000210: cc1a a13d ae2d b7bd 60cb 3cbc 2806 12bd
00000220: e832 8b3c 3811 bf3d bea0 94bd 5493 d33d
00000230: 4b11 e3bd 98f8 963d b820 ac3c ca32 acbd
00000240: 8a20 abbd 8e84 c2bd d62a a43d dc7d 483d
00000250: 7ec0 0cbd cce9 803d 1ca3 083e a3e7 86bd
00000260: 24ec 3a3d 8cc8 da3d 18e0 3e3d 90de d13d
00000270: 7263 933d 7e03 8a3d 20c2 bfbc fc09 823d
00000280: 70e3 9d3d df79 02be 10f8 e0bd 6883 a53d
00000290: 7074 f6bd da03 8cbd 6c02 2bbd a833 913d
000002a0: 20cd cabb ead5 0dbd 7427 8c3d 4c99 ea3d
000002b0: 8225 5abd 80dc 81bd b8a9 9abc b0fd 153c
000002c0: f2ef 9fbd 7247 bd3d 0398 fdbd f29f 96bd
000002d0: ed51 f5bd 0cc5 74bd ec74 23bd a899 513d
000002e0: 005c 87ba 423e 7abd e07f 723d 1c9f 8c3d
000002f0: 9aef 4cbd 4dfb c9bd d8bc 73bd 3014 3a3d
00000300: f93c 04be 709c 043e 1cd6 15bd 703c 503c
00000310: 1cba 783d 1f14 fdbd 3c7c fa3d 443b f0bc
00000320: e85b e73d c037 e63c b84a 713d 108b afbc
00000330: 6a93 0abe f85e d83d 2450 8f3d 2844 bc3d
00000340: f475 4e3d 608d 24bd 5c29 c7bd 00c0 b339
00000350: 2610 b73d 0041 5c3a 88fb db3c 1007 843c
00000360: fa52 a8bd eb02 e7bd 902a 053c b4e4 f43d
00000370: b625 033e a8d0 4f3d f463 633d ea04 59bd
00000380: d83d c43c 7a2d 89bd 1b56 89bd f807 523d
00000390: a806 c6bd 8046 8f3d ce68 57bd 2a64 043e
000003a0: aa9c c53d 1081 833d d63f 56bd 9cc5 1f3d
000003b0: 201a f83d f4a1 073d ca5a a53d 2e55 d43d
000003c0: 5880 ae3c 203e 023c dc05 5d3d 2043 d5bd
000003d0: 0047 4bba 3021 e23c 546d 473d f0d9 5abd
000003e0: a800 fa3d 584a 083e b0be 6fbc da1c 913d
000003f0: a26b d63d 8eb1 083e 5009 f53d 80bc 5f3c
0.08553025 0.115687996 -0.058583558 0.010227829 0.0648998 0.044422314 -0.095923305 -0.13067211
-0.116765365 0.09217502 -0.08706087 -0.089647934 0.11280483 0.13201773 -0.017192572 0.09072809
0.06829202 0.0023550093 -0.03903255 -0.13011082 0.02536577 0.085684836 0.08484769 0.003910288
-0.03865864 0.07504237 -0.059409015 -0.08943959 0.05942142 -0.035440214 -0.062690966 -0.04563103
0.088976875 -0.019528568 0.09539004 0.11304025 0.08230074 -0.1129331 -0.10647833 -0.06242656
-0.047429875 -0.071958475 0.13384917 -0.021702833 0.090097725 -0.030374803 -0.024197377 -0.109378636
-0.09080887 0.08039242 -0.07902916 0.0035334975 -0.073780864 0.08968581 0.0073196143 -0.0841911
-0.05728437 0.0936012 0.012566119 0.013574988 0.026092872 -0.04544363 -0.018415734 -0.010900453
0.10351691 -0.11075872 -0.063249566 -0.09312417 0.10541397 0.09608641 0.04148464 -0.088638484
0.09888439 0.102901876 -0.047941573 -0.067381755 0.060230553 0.12581149 -0.117666304 -0.034889802
-0.08697514 0.052442446 0.04824847 -0.04950405 -0.124911584 -0.07986284 0.10252768 0.07373467
0.04610306 0.097889274 -0.12447681 -0.027104512 -0.047279395 0.13314655 0.0059191734 -0.032965027
0.11340608 -0.10638511 0.07841249 0.04727705 -0.08287695 -0.0297762 -0.036194287 -0.08145933
-0.001135096 -0.06023337 -0.0017368495 0.024406716 -0.07254529 -0.055992365 0.0371871 0.066944316
-0.061102346 -0.04749185 -0.12093781 -0.12541553 -0.013222612 0.02836585 -0.056538343 -0.01791583
0.048976883 -0.06489454 0.044993326 0.042575717 0.110429436 -0.09612326 0.12915128 0.13333511
-0.012967594 0.005602032 0.12053171 -0.09876479 0.07866439 -0.089442596 -0.011523098 -0.035650402
0.016992047 0.09329456 -0.07257222 0.10330835 -0.11087283 0.07371634 0.021011695 -0.08408125
-0.08355816 -0.09497939 0.08015983 0.048948154 -0.034363262 0.06294593 0.13343471 -0.0658715
0.045635357 0.106827825 0.04660043 0.102475286 0.07196702 0.06738947 -0.023407996 0.063495606
0.07709396 -0.12741803 -0.10984814 0.080817044 -0.120339274 -0.06836672 -0.041750357 0.07089931
-0.0061890036 -0.034627832 0.068434626 0.1145502 -0.053258426 -0.06340885 -0.018879756 0.009154722
-0.07809438 0.09242143 -0.123825096 -0.07354726 -0.11978517 -0.05975823 -0.039906427 0.05117193
-0.0010327101 -0.06109453 0.059203982 0.06866285 -0.05003319 -0.09862385 -0.059506267 0.04542941
-0.12913884 0.12950301 -0.036581144 0.012709722 0.060724363 -0.123573534 0.12230727 -0.029325135
0.112968266 0.028102756 0.058909148 -0.021428615 -0.13532797 0.10564989 0.069977075 0.09192687
0.050405458 -0.04017389 -0.097246855 0.00034284592 0.08938627 0.000840202 0.026853338 0.016116649
-0.082189515 -0.112798534 0.0081278235 0.11957684 0.12807354 0.0507361 0.055515245 -0.052983202
0.02395527 -0.06698127 -0.067058764 0.05127713 -0.09669238 0.06995869 -0.052590184 0.12928835
0.09649022 0.06421101 -0.052306972 0.039006814 0.12114358 0.033113435 0.08073957 0.10367809
0.021301433 0.007949382 0.053960666 -0.10413194 -0.0007754415 0.027603716 0.048688248 -0.053430498
0.122071564 0.1330961 -0.014632866 0.07085581 0.10469748 0.13348982 0.11964667 0.013655782

IN_both.0.bias f4 [8]
00000000: 94bf e93d c07d cd3c 2847 9a3c 8cdc f93d
00000010: 80d1 c93d 8861 5b3d 8bba 89bd da60 a7bd
0.11413494 0.025084376 0.018832758 0.12200269 0.09854412 0.05355981 -0.067250334 -0.0817277

IN_both.1.weight f4 [8]
00000000: 0000 803f 0000 803f 0000 803f 0000 803f
00000010: 0000 803f 0000 803f 0000 803f 0000 803f
1.0 1.0 1.0 1.0 1.0 1.0 1.0 1.0

IN_both.1.bias f4 [8]
00000000: 0000 0000 0000 0000 0000 0000 0000 0000
00000010: 0000 0000 0000 0000 0000 0000 0000 0000
0.0 0.0 0.0 0.0 0.0 0.0 0.0 0.0

IN_both.1.running_mean f4 [8]
00000000: 0000 0000 0000 0000 0000 0000 0000 0000
00000010: 0000 0000 0000 0000 0000 0000 0000 0000
0.0 0.0 0.0 0.0 0.0 0.0 0.0 0.0

IN_both.1.running_var f4 [8]
00000000: 0000 803f 0000 803f 0000 803f 0000 803f
00000010: 0000 803f 0000 803f 0000 803f 0000 803f
1.0 1.0 1.0 1.0 1.0 1.0 1.0 1.0

residual.weight f4 [8, 8, 1, 1]
00000000: 33c9 9d3e 0341 c7be 0cb9 e5bc 5e51 923e
00000010: 562f aebe 624e 203e 509a 51bb de62 e13d
00000020: 9b19 89be e574 083e 6a3c 1c3e d16c 723e
00000030: 0f09 25be 1a95 a23e 6fcd 51be b8dc a9be
00000040: 2f0e 8b3d 1804 fd3d ae4a c53c 5ea7 0a3e
00000050: dd55 8d3e 27f5 1ebd 7aff b8be 4251 cf3d
00000060: 6bbf 3dbd 50be 9e3e 9c42 ca3e 8a5c 493d
00000070: 97c2 e83d b156 6d3d 65a8 993d 560b 0fbe
00000080: 2d34 97be 0b8f dcbc 5f01 953d 0edb b13c
00000090: 9654 843e 1449 353e b75c 703e e2d8 953e
000000a0: ed72 8abe 37c1 643e 5eef f03b 5014 24bb
000000b0: a233 993e 2927 b93e ac19 0a3e 3a7f 533e
000000c0: ac63 0ebe 72ec 92bd b626 7d3e 8c10 20be
000000d0: e3a1 623e 53ba 78bd 271a 85be f05a 853e
000000e0: 65b5 a6be 41ef 24be 95c9 82bd 6fa7 aa3c
000000f0: 07d7 203d 8570 253e 9807 cc3d aeab 663e
0.30817565 -0.38916788 -0.028042339 0.28577703 -0.3402049 0.156549 -0.0031982847 0.110051855
-0.26777348 0.13325842 0.15257421 0.23674323 -0.16116737 0.3175438 -0.20488523 -0.33176208
0.06789815 0.123542964 0.024083462 0.13540408 0.2760457 -0.038808014 -0.36132413 0.101229206
-0.04632513 0.31004572 0.39503944 0.049160518 0.1136524 0.057944003 0.07502822 -0.13969168
-0.29531994 -0.026923677 0.07275652 0.021710899 0.25845784 0.17703658 0.23472868 0.2926703
-0.27040806 0.2233933 0.0073527535 -0.0025036521 0.29922205 0.3616269 0.13486356 0.20654002
-0.1390521 -0.071740046 0.24721798 -0.15631312 0.22132067 -0.060724568 -0.25996515 0.26045942
-0.32560268 -0.16106893 -0.06386105 0.020831792 0.039267566 0.16156204 0.09962386 0.22526428

residual.bias f4 [8]
00000000: e6f6 debd 6296 4dbd c47e 6abe c95d 8ebe
00000010: b007 bb3e b7ac f6bb 8574 abbd 857f 283e
-0.10886936 -0.050192244 -0.2289992 -0.27805927 0.36529303 -0.0075279134 -0.08371834 0.16454895

block.0.depthwise.weight f4 [8, 1, 3, 3]
00000000: 08ad f8bd 3a43 31be edd2 a83d 0615 883e
00000010: d54f 97bd 1b31 d43d 6b83 84bd b3b2 8e3e
00000020: a818 29be ff3d d03d 9c63 533d f528 613e
00000030: 5ade 9e3e 14be 033e 7d5e c53d 1328 73be
00000040: e81a 533d 92a5 03be aba2 6d3e 49ac 36be
00000050: b40f f73d 76a1 0ebd a565 463d edad 263e
00000060: bcb9 db3d 5acc acbd 1cd1 3e3d 3a7f 6f3c
00000070: 7ced 183e 9d12 6bbe a409 e33d ad39 f5bc
00000080: 4741 49be 1fbc 7f3e 5cd6 c7bd 5762 99be
00000090: 2b4c da3c 9bad 393d c5b8 663c cdba b63e
000000a0: 1dc1 86be 7dab 603e d64e 543e eede d83d
000000b0: 8dd1 113e 9b33 5b3e 1b76 053e 9331 7fbe
000000c0: 6e88 20be 5282 ff3d ab1f aa3e 6d2a 1c3e
000000d0: 8ea9 bb3d 8ee6 363e 9731 f63d 42da b2bd
000000e0: 8b7a 82be 511e 8fbe 4681 5ebe 2a72 8abe
000000f0: 0947 77be 0f3b 173d afcb 57be 4671 0bbe
00000100: 843c 9e3e fe33 993d edeb d8bd 757c 9a3e
00000110: 7106 0b3e ae0d 7e3e 8e8a 6e3e 4407 b63e
-0.12142378 -0.17310801 0.08243356 0.2657854 -0.073882736 0.103609286 -0.064703785 0.27870712
-0.16513312 0.10168075 0.051608667 0.2198828 0.31029016 0.12865478 0.09637163 -0.23745756
0.05153933 -0.12856129 0.23206584 -0.17839159 0.12063542 -0.03482195 0.04843678 0.16277285
0.107287854 -0.084374145 0.04658614 0.0146177355 0.14934343 -0.22956319 0.11085823 -0.029934729
-0.19653808 0.24974106 -0.09757683 -0.2995784 0.026647648 0.04533158 0.014082138 0.35689393
-0.2631921 0.21940418 0.20733199 0.105893955 0.14240094 0.21406405 0.13033335 -0.24921255
-0.15677044 0.124760285 0.33227286 0.15250559 0.09163199 0.17861387 0.12021177 -0.087330356
-0.25484118 -0.27952817 -0.21729001 -0.27040225 -0.24148192 0.036921557 -0.21073793 -0.13617429
0.30905545 0.0748062 -0.10591874 0.30173078 0.13576676 0.24809906 0.23295042 0.35552418

block.0.pointwise.weight f4 [8, 8, 1, 1]
00000000: 9fc7 863e f1b5 953e 0e50 81be 6511 4a3e
00000010: fb86 ad3d f215 13be 330b c23d 135b 4a3e
00000020: f6fc 5f3e 3890 d43e 4e6e 893e 172c b0be
00000030: 025a 303e e73d 90be bbf6 3bbe 5b6f 733e
00000040: 4421 9f3e 191d a63e eac7 a83e f13d 993e
00000050: adb3 e7bd 7bc9 83be 9634 99be c81b c43e
00000060: 6fc7 7f3d c45b 3939 089e 88be 7d76 39be
00000070: f740 b2be 9519 abbd 7232 193e 0108 ef3d
00000080: f1b4 073e 0f97 8abe ed87 f0be 3a7f 24be
00000090: aac9 893e 922a 1c3e d553 9dbe f28e bebe
000000a0: a4f6 8e3e f714 403e 5b20 233e 0646 67be
000000b0: 16bc 89be 48d0 bf3e 164b 9ebe 6caa f63d
000000c0: 2534 913d 6d8f 2abe 888d 5cbe 6faf ecbd
000000d0: ab94 fb3d 7738 1f3c 1ade 07bd 8936 25bc
000000e0: a874 993e 81dd 1e3e b575 903e e6d4 fcbd
000000f0: 88ca 1b3e baf2 80bc 9e12 a7be df90 203e
0.26324174 0.29240373 -0.2525639 0.19733198 0.08473011 -0.1436384 0.09474792 0.19761305
0.2187384 0.4151628 0.26841968 -0.34408638 0.17221835 -0.28172228 -0.18355839 0.23772947
0.31080067 0.32444075 0.32965022 0.2993007 -0.11313567 -0.25739655 -0.29922932 0.38302445
0.062446054 0.0001767716 -0.26683068 -0.18111606 -0.3481519 -0.08354489 0.1496065 0.116714485
0.13252617 -0.27068374 -0.46978703 -0.16064158 0.2691167 0.15250614 -0.3072802 -0.37218434
0.27922547 0.18757997 0.15930311 -0.22585306 -0.2690131 0.37463593 -0.3091666 0.12044224
0.07090024 -0.16656275 -0.21538365 -0.11556899 0.122842155 0.009718052 -0.033170797 -0.010083803
0.29971814 0.15514185 0.28214803 -0.12345295 0.15213978 -0.015740741 -0.3263139 0.15680264

block.1.weight f4 [8]
00000000: 58fe 743f 5851 803f 88d4 793f a568 823f
00000010: dd0f 823f bdfc 753f e60d 883f 8e6e 803f
0.957006 1.0024824 0.9758992 1.0188185 1.0161091 0.96088773 1.0629241 1.0033739

block.1.bias f4 [8]
00000000: 834a 70bd 73c3 cc3b 63c5 9dbd 2fa2 f23d
00000010: 337d 1a3d 0811 e1bd 3ab0 ac3d f088 cd3d
-0.05866481 0.0062488853 -0.07703664 0.1184734 0.037717056 -0.109895766 0.0843205 0.100358844

block.1.running_mean f4 [8]
00000000: bedc 873d e5f0 cd3e 1e20 c33e 9b22 37be
00000010: a32d 41bc 70fc aa3e 3d3a a73a 008c d53e
0.066339 0.4022285 0.3811044 -0.17884295 -0.011790666 0.3339572 0.0012758445 0.41708374

block.1.running_var f4 [8]
00000000: 7e22 943c 4fae 723e 68f6 a13e 7489 c33c
00000010: c71a dd3d 5267 343e b635 753c 9177 283e
0.018082853 0.23699306 0.31633306 0.023869254 0.10796123 0.17617539 0.014966419 0.16451861

block.3.depthwise.weight f4 [8, 1, 3, 3]
00000000: 1f39 71bc 0a9e 0bbe a286 99bd 0514 3c3e
00000010: f215 b83d 11e8 38be c1af 4bbe 280e a33e
00000020: 11cf 73bd cdd0 f63d e69a 973d c383 83be
00000030: 06b6 47be bbff 9c3d 2d6b 993e a592 8cbd
00000040: 3638 a0bd d8de a5be ffd0 693d 5ce4 65be
00000050: c318 da3d c3df 78be 8001 653e 74ac 1f3e
00000060: 240b 4abd f157 1a3e 4f99 86bd c7f9 d4bc
00000070: d3bf ab3e b697 003e 4c5c ae3e f4ea 343c
00000080: 402b 8e3b 1b40 d0bc 2b66 9ebe 15e8 b83e
00000090: 2fd0 8dbd 688d 8d3e 669e b23e 1e0d 87be
000000a0: ec2a b5bc ca03 1bbe 641b 1b3e 24ab a73e
000000b0: b74c 9cbd c335 ebbd be4e 4c3e 2c11 90bd
000000c0: e39f 57be 8d09 0a3e 3c3d 1f3d c9e0 8a3e
000000d0: f84d 0dbe 4f36 6b3e f2d2 6abe 562d 983e
000000e0: ea0a b1be 7411 a83c 7452 6b3e 597f 88be
000000f0: 32b9 2abd 8f89 55be 4cfc fc3c bb3b 053c
00000100: 85e5 ea3c 9dd9 80bc 5ec1 223e 3290 663e
00000110: 7e87 68be 8587 a2bd 4220 7bbe 7b7a 4fbd
-0.014723091 -0.13634506 -0.07496382 0.18367012 0.08988561 -0.18057276 -0.19891264 0.31846738
-0.059523646 0.12051544 0.074025914 -0.25686464 -0.1950303 0.07665964 0.2996458 -0.06863908
-0.078232214 -0.3239658 0.05708408 -0.22450393 0.10649254 -0.24304108 0.22363853 0.1559313
-0.04932703 0.1507261 -0.0657221 -0.02599801 0.33544788 0.12557873 0.34054792 0.011042345
0.004338652 -0.025421193 -0.30937323 0.36114565 -0.069244735 0.27646947 0.34886473 -0.26377195
-0.022115193 -0.15138164 0.15147167 0.32747757 -0.0763182 -0.114848636 0.19951913 -0.07034525
-0.21057086 0.13480206 0.038876757 0.27124622 -0.13799274 0.22969936 -0.22932032 0.2972209
-0.3457864 0.020516135 0.22980672 -0.2665966 -0.041680522 -0.20853256 0.030882023 0.008131917
0.028673897 -0.015728766 0.15894076 0.22515944 -0.22707936 -0.079360045 -0.24524024 -0.050653916

block.3.pointwise.weight f4 [8, 8, 1, 1]
00000000: 150c a2be a5ac 8dbd 12aa 363e 3d4d 163e
00000010: c9d0 71be 5930 78be 5c0d 8cbd 45d6 8cbd
00000020: 9296 debd 352d 703e 3243 8e3d 6970 363e
00000030: e1d3 3ebe 78bd 753d 932a e3be 206f 003e
00000040: eb9f 8a3d f7ea 20be 70d9 fb3d 2529 a3be
00000050: 5b23 8d3c 0aca 3bbe dddb 71bb 37e8 c13d
00000060: 08fd 203e 90ac 61be 1c50 7d3e 5026 9fbe
00000070: 8a8d 71be 22b2 863e e6ae 933e a862 ebbd
00000080: b31c 5a3e 28b7 623e e4ad 8abe 4c4a b23d
00000090: 5602 39be 9303 ebbd a751 6abd 3eb6 873d
000000a0: a067 143d 36bb 713e 1dd0 063e 7c5e 5cbd
000000b0: 3641 88be 50a7 a63e 199a be3e 9f8b 66bb
000000c0: 3c58 9cbe 793a b23e 9527 e6bd 660f 213d
000000d0: 6d01 9ebe ecf5 7c3e 6049 6e3e 0c3b bfbc
000000e0: 7ea2 013e 86ab ba3d 7e91 5cbe ca82 80be
000000f0: b85c a4bc 6dab e0bd 9445 81be 1e0f 1a3d
-0.31649843 -0.06917695 0.17838314 0.14677902 -0.23614801 -0.24237193 -0.068384856 -0.06876806
-0.10868563 0.23454745 0.0694641 0.17816319 -0.18635513 0.059995145 -0.4436842 0.12542391
0.06768783 -0.15714632 0.12297332 -0.31867328 0.017228773 -0.1833879 -0.003690473 0.094681196
0.15721524 -0.22038484 0.2473759 -0.31083918 -0.23589149 0.2630778 0.28844374 -0.114934266
0.2130001 0.22140181 -0.27085793 0.08705577 -0.18067297 -0.11475291 -0.057206776 0.06626557
0.036231637 0.23606572 0.13165326 -0.053801045 -0.26612252 0.32549524 0.37226942 -0.0035178436
-0.30536067 0.34810236 -0.112380184 0.039321326 -0.30860463 0.24703187 0.23270178 -0.023343585
0.12659642 0.09114747 -0.21539876 -0.25099784 -0.020063743 -0.10970197 -0.25248396 0.037612073

block.4.weight f4 [8]
00000000: 894f 883f 7693 793f d025 8c3f 0f10 713f
00000010: 9649 763f 9b45 7f3f 47be 6c3f 0ea5 693f
1.0649272 0.9749063 1.094904 0.9416513 0.96206033 0.99715585 0.9247784 0.9126748

block.4.bias f4 [8]
00000000: c830 0a3e 812a 9ebd dc1e 0f3e 6258 783b
00000010: ea6e e7bc 40d1 5bbd 383c 1cbe ce9b 04be
0.13495171 -0.07722951 0.13976616 0.0037894477 -0.02825113 -0.053666353 -0.15257347 -0.1295006

block.4.running_mean f4 [8]
00000000: 5588 c03c d806 d33d abd2 f9bd d5b4 28be
00000010: 4dd7 5cbd 1bb8 1ebe 253c f3bd 0ba1 a4bd
0.023502508 0.1030404 -0.12198385 -0.16475232 -0.053916264 -0.15499918 -0.11876706 -0.08038529

block.4.running_var f4 [8]
00000000: df71 1a3c 1cd0 883c c3e8 513c 6d37 433d
00000010: 81ef 8e3c e9aa 1d3d b1b0 f83c 0797 e03c
0.009426563 0.016700797 0.012811842 0.04766028 0.017448189 0.03849307 0.03035769 0.027415765

block2.0.depthwise.weight f4 [8, 1, 3, 3]
00000000: eb39 043e faad 4e3e 7b86 a13e cf6e 81bd
00000010: 6433 813e 1ed8 173e be68 933e 6933 a93e
00000020: b56c b63b 1b75 b13e eb70 263e 330d 8a3e
00000030: 6cbc 8cbe 31e7 08be 3598 1b3e 67ef 073c
00000040: e751 2c3d 3f62 8a3c 796c 67be 4bae 8cbe
00000050: b6ae 283e 640a e13d b4ff 8abd b8ad 3ebe
00000060: fd89 58be bcd4 c9be c3b7 b0be f218 ec3b
00000070: a22d 843e 533d bc3d 68bc b33c 6f27 5e3e
00000080: 7d70 60bd 2840 ff3d 8681 803e 5b77 5fbe
00000090: 40ad f03c b7eb 443e 6138 463e ef47 593d
000000a0: 4bec 98bd c976 023e a271 583e 1d15 e7bd
000000b0: 06a6 3f38 1dd1 183e 96fa 4fbd cbfb 8b3e
000000c0: 3121 3f3e 2220 35bd 848d 393e ac4f 3dbd
000000d0: 4a31 a53e 1899 f93d 9fd2 fe3d dd92 0e3e
000000e0: fe41 c4bd f154 21be 6837 373d 12ac f0bd
000000f0: 5a05 b33e ebba 64be 8f74 55be befb 1cbe
00000100: fd6b a1bd 667a 6f3d 22a2 4cbe 42fb a4be
00000110: 883e 363e 13c7 6b3e b59d 02bd 9976 24bb
0.12912719 0.20183554 0.31547913 -0.06319963 0.2523452 0.14828536 0.2879085 0.33047035
0.005567158 0.34659657 0.16254012 0.26963195 -0.27487504 -0.13369443 0.15194781 0.008296824
0.042070296 0.01689255 -0.22599973 -0.27476725 0.16472897 0.1098831 -0.06787053 -0.18620956
-0.21146388 -0.39420116 -0.345152 0.007205122 0.25816065 0.09191384 0.021940425 0.2169473
-0.054794777 0.12463409 0.2509882 -0.21822874 0.029379487 0.19230543 0.19357444 0.053047117
-0.07466944 0.12740625 0.21137097 -0.11283324 4.569257e-05 0.1492352 -0.050776087 0.2734054
0.18665005 -0.044220097 0.1812039 -0.04621856 0.32264167 0.121874034 0.124425165 0.13923211
-0.095828995 -0.15755059 0.044730574 -0.1175157 0.3496502 -0.22336929 -0.20845245 -0.15330407
-0.07881925 0.058466338 -0.19983724 -0.32222944 0.17797291 0.2302516 -0.031888682 -0.0025095104

block2.0.pointwise.weight f4 [8, 8, 1, 1]
00000000: ec6f dcbe 9cd6 07be 9cd2 49be 9602 1a3e
00000010: 605d 073e f4b3 b73d d4f1 56be 1256 c0bc
00000020: 68ae c43c 6311 6cbe 52a9 b13e 86ee 1fbe
00000030: 0c44 973e fe90 113b b481 d2bd 6464 53be
00000040: dc9c 88be 6e6e b93c 3a36 eebd 1c47 1ebd
00000050: 4861 89bd 1361 8a3e aa18 fc3b 216f 3c3d
00000060: 33c9 883e afbd 22bb 6bd4 92be 2964 15be
00000070: a627 ecbd 5ff1 a43e b7ea 153d 0952 8e3d
00000080: 969a cbbe c196 0dbd 5db4 e9bd ba0e 083e
00000090: b780 933d 1e76 183e 7c75 6d3e 8a81 f1bd
000000a0: d366 803e 1279 253e 41ee 20be 20e5 34be
000000b0: 5a8c b23c 66ce a03e f8f9 7b3e b9ba 2abd
000000c0: 3ee3 433d a7d9 953d 2798 09be c912 eebc
000000d0: d5c0 883d 2a4f f3bd 509a 4dbe 5f34 83be
000000e0: 9ea4 f33d d713 e6bd 1809 4a3e 2be7 63be
000000f0: f135 72be b1bd 413e 1170 7f3e 4a25 853e
-0.4305414 -0.1326546 -0.19709247 0.15040049 0.13219213 0.0896987 -0.20990688 -0.023478542
0.024008945 -0.23053508 0.34699494 -0.15618333 0.29544103 0.0022211666 -0.10278645 -0.20643765
-0.26682174 0.022635665 -0.11631437 -0.038642034 -0.06708008 0.27027187 0.00769337 0.04600442
0.26716003 -0.0024832299 -0.28677687 -0.1458899 -0.11531 0.32215402 0.036600795 0.06949241
-0.39766377 -0.0345676 -0.11411355 0.13286868 0.07202285 0.14888808 0.23189348 -0.11792286
0.2507845 0.16159466 -0.15715887 -0.17665529 0.02179544 0.3140747 0.24607074 -0.04168198
0.047824137 0.073169045 -0.13436948 -0.029061692 0.06677405 -0.11880334 -0.20078397 -0.25625893
0.118966326 -0.11234253 0.19730031 -0.22256152 -0.2365339 0.18920018 0.24945094 0.26005012

block2.1.weight f4 [8]
00000000: 2ff9 933f 0636 963f 1622 953f 0e3d 933f
00000010: 6f05 963f 96df 973f 2f05 723f 69c1 893f
1.156042 1.1735237 1.1651027 1.1503007 1.1720408 1.1865108 0.9453916 1.0762149

block2.1.bias f4 [8]
00000000: ea3c c23d 27e1 213e e21e f93d c1b1 f03d
00000010: 5f04 173e df36 143e 66ea 84bd 2244 633d
0.09484275 0.15808545 0.121640936 0.11752654 0.14747761 0.14474057 -0.064900205 0.0554849

block2.1.running_mean f4 [8]
00000000: 45bc 38be ca8c 8cbe 4f3c 79bd 84ee 623f
00000010: ab43 45be 75ec 603f 8dcc 863e 2eba 93be
-0.18040569 -0.27451164 -0.06084853 0.88645196 -0.19264095 0.87860805 0.26327935 -0.2885298

block2.1.running_var f4 [8]
00000000: 1b1a c03e 5ebc 5c3e c9b1 0d3e 4587 423e
00000010: 6fdd 9c3e 5001 283e d565 a73d f34c 183e
0.37519917 0.21556231 0.13837351 0.18996914 0.3063769 0.1640675 0.0817372 0.14873104

out.0.weight f4 [3, 8]
00000000: 0986 b73d dba7 a1be 5c11 b63e 4206 b63a
00000010: 8743 983e 3225 a9be 5202 623b ba20 c1be
00000020: 3c73 70be c2c9 e73e ce6d 8bbe 9407 91be
00000030: a47d 76bd 0dad 33be 440b b9be b6ad 3a3d
00000040: 834d 72be deae c9be e8d3 14be 3f16 e33e
00000050: 6f1e 13be 2e05 8f3e 7988 583b 761e 8dbe
0.08961112 -0.31573376 0.3556012 0.0013887363 0.2973902 -0.3303619 0.0034486246 -0.3772028
-0.23481458 0.45271116 -0.27232212 -0.28326094 -0.060178414 -0.17546482 -0.36141407 0.04557582
-0.23662381 -0.39391226 -0.14533961 0.4435291 -0.14367078 0.2793364 0.0033040328 -0.27562302

out.0.bias f4 [3]
00000000: 91c6 30be 0b62 c63e d24e 893c
-0.17263247 0.38746676 0.016761217
