saved_models/Flame_one_stream_rgb_index0_epoch3_final.pth (torch, 20844 bytes, 34 tensors)

IN.0.weight f4 [8, 3, 3, 3]
000000 2d 03 0f 3e 28 a6 09 be 39 39 3a bc 37 52 fa bc
       0.13966055 -0.1344229 -0.011366182 -0.030556781
000010 9e 28 30 be b3 5f 4f bd 1f 84 7c bd d4 12 bc bd
       -0.17202994 -0.050628375 -0.061649438 -0.09183279
000020 a3 91 56 3e c5 e9 86 bd 2f d4 af bd c9 39 14 3e
       0.20953993 -0.06587557 -0.08585393 0.14475168
000030 fd 1b 21 be a9 46 06 3d 8f a4 46 3e 5c 9a 84 3d
       -0.15733333 0.03278223 0.19398712 0.06474754
000040 2b a9 8a bd dd c5 1b be 78 3e ba bc c4 8a 82 3d
       -0.067705475 -0.15212198 -0.022734866 0.06374124
000050 ed 13 2d bd e6 f4 43 be 35 cf 06 be c7 c6 17 be
       -0.04225533 -0.1913639 -0.1316498 -0.14821921
000060 a2 ad 80 bb 59 8e 03 be d8 6b 9a 3d e4 1f 14 be
       -0.0039269486 -0.1284727 0.07540101 -0.1446529
000070 d3 3b 20 be 12 dc 55 3d e9 c4 3a 3d aa 49 ef 3d
       -0.15647821 0.05221183 0.045597944 0.11683972
000080 03 08 ee 3d 0e bb 26 3e f3 d0 09 3e ca 46 88 3c
       0.11622622 0.16282293 0.13458614 0.016635317
000090 6e ec 2c be be 81 bc 3d 97 cd 9d bd 45 a1 ee 3d
       -0.16887066 0.09204434 -0.07705229 0.116518535
0000a0 75 0f cf 3d f2 41 9b 3c 5a f7 ce bb b9 ad 80 bd
       0.1011037 0.018952344 -0.0063161077 -0.06283135
0000b0 27 61 11 3e 0b e8 0c 3e 75 4f 3c 3e 23 08 27 bd
       0.14197217 0.13760392 0.18389685 -0.040779244
0000c0 66 97 9d 3d 67 db 9e bd f1 2c 85 3d 7e 9e 4d bd
       0.076948926 -0.077566914 0.065027125 -0.050199978
0000d0 c1 91 1f 3e f0 85 19 be 40 cc 00 be 69 30 1a be
       0.15582944 -0.149925 -0.12577915 -0.1505753
0000e0 3c 64 ef 3c 3a 80 d2 bc d3 45 02 3e b0 20 da bd
       0.0292226 -0.025695909 0.12721948 -0.10650766
0000f0 c0 d7 e4 3b 62 a8 23 3d ab 9f 92 bc 84 a0 00 be
       0.006983727 0.039955504 -0.017898401 -0.12561232
000100 91 b0 c2 3d e5 98 21 be ec 26 9b 3c 58 d1 07 3e
       0.095063336 -0.15780981 0.018939458 0.13263452
000110 ab 6f 0f 3e 4f 03 b7 bd 9f 81 15 3d d4 b8 dd bc
       0.14007442 -0.08936178 0.03650057 -0.027065672
000120 0f 64 e9 bd a1 56 07 bd a8 b3 46 3e 35 ed 28 be
       -0.11396038 -0.0330416 0.19404471 -0.16496737
000130 34 c9 01 be bd a3 11 3e da d7 12 3e 31 a2 22 3e
       -0.12674409 0.14222617 0.14340153 0.15882184
000140 ed ed 21 3e 04 5d b7 3d b5 df 0e be 48 e8 55 be
       0.15813418 0.08953288 -0.13952525 -0.2088939
000150 de 1c b8 3d 77 05 84 3b 4a 67 07 be 3f fa a9 bd
       0.08989881 0.004028972 -0.13222995 -0.08299684
000160 36 30 e8 bc 3e 0c af 3d d0 0e cb bd e6 76 de 3d
       -0.028343301 0.08547257 -0.09914935 0.10862522
000170 b8 05 0e be 34 7a 1f 3e 8a ae ef 3d d3 fe 39 bd
       -0.13869369 0.1557396 0.117032126 -0.045409035
000180 d2 90 d0 3d 1e 66 03 be 47 1c 08 3e 60 19 df bd
       0.10183872 -0.12831923 0.13292037 -0.10893512
000190 d1 fa b8 bd de 0c 6f bd ae 6b cf 3d be 31 d4 3d
       -0.090322144 -0.05836188 0.1012796 0.1036105
0001a0 c3 9c 1b 3e 95 19 bc 3d fb c6 91 ba 7b f9 2d 3e
       0.15196519 0.09184567 -0.0011121923 0.169897
0001b0 00 97 c3 bd 61 bd 31 bd a0 78 d0 bd d8 67 a7 bd
       -0.09550285 -0.043393496 -0.101792574 -0.081741035
0001c0 3e 7a 87 3c 85 ff 3e be 6e 81 ae bd 3b b7 f8 bd
       0.016537782 -0.1865216 -0.085207805 -0.121443234
0001d0 8c fd 6f 3c 77 f9 00 3e 74 8f 0d be dc 94 12 bd
       0.014647853 0.12595163 -0.13824254 -0.035786495
0001e0 78 ee ac bd 6b c4 aa bd ed 1a f9 3d ca 10 ae 3d
       -0.08443922 -0.08338245 0.12163339 0.08499296
0001f0 63 b7 02 3b d3 99 be bd ae ef 1c be 8b 0a 27 be
       0.0019945733 -0.093066834 -0.15325806 -0.16312616
000200 71 fb d2 3d a7 dd 11 3e 5b a3 5a 3d 82 cb 3c 3d
       0.10301865 0.1424471 0.053378444 0.046092518
000210 18 f1 e9 3d 4d 7e 55 3b bd 19 ad bd 77 54 d7 3d
       0.11422938 0.0032576502 -0.08452175 0.10514157
000220 42 50 c0 3c fc 0e b4 bd 23 1f 44 3d 3f 34 18 be
       0.02347577 -0.087919205 0.047881257 -0.1486368
000230 1a b7 dc 3d 8e 8c d5 3d 8c cc 05 3d 4d 7e a7 3d
       0.10777111 0.10427199 0.032665774 0.08178387
000240 d3 15 19 be f2 bf ec bd 03 71 0d be 7d c0 3b 3d
       -0.14949732 -0.11560048 -0.13812642 0.045837868
000250 f7 67 03 3e a9 90 3b 3e 03 34 19 bd 0a 51 c2 3b
       0.12832628 0.18316902 -0.037403118 0.0059300708
000260 b6 53 45 3d 1c 71 d9 bb 3d 6a 6e 3d f2 be cf 3d
       0.048175536 -0.006635798 0.058206785 0.10143842
000270 54 4a ab bd 29 f2 9f bd 23 19 5b 3c 79 8c 36 3e
       -0.08363786 -0.0780986 0.013372692 0.17827024
000280 03 c8 48 3d ea 23 35 be 3a c8 1f 3e 27 65 9c 3b
       0.04901887 -0.17689481 0.15603724 0.0047728005
000290 2f d7 96 bd a4 1a 05 3e 9d 2e 28 be 17 f2 34 bd
       -0.07365262 0.12998444 -0.16424032 -0.044176187
0002a0 41 9d d2 3b ba 6c 09 3e 31 88 0b 3e 77 6a c9 3d
       0.0064274375 0.13420382 0.13626172 0.0983476
0002b0 60 e3 14 3e 63 cd c0 bd 68 08 08 be 64 c5 09 3e
       0.14539862 -0.094141744 -0.13284457 0.13454205
0002c0 9a dd 80 3d d8 c2 90 3d 98 16 31 be 73 ce 35 3d
       0.06292267 0.070684135 -0.17293775 0.04438634
0002d0 16 74 d0 3d bf a0 33 be 25 bb 83 3d c1 d1 24 3e
       0.10178392 -0.17541789 0.06432179 0.1609564
0002e0 da 45 0d 3e b7 c9 ea 3d ef eb ac 3c d2 f8 83 bd
       0.13796178 0.11464255 0.021108596 -0.06443943
0002f0 f7 bd 53 bd 4f 04 f7 3c 04 30 d4 3c 45 11 42 be
       -0.051694836 0.030153422 0.025901802 -0.189519
000300 24 5b ca 3c 57 f8 1d be ba 09 8c bc c9 51 fe bd
       0.024701662 -0.15426765 -0.017094482 -0.12417943
000310 9a 22 12 3e 3c 7c 32 be 9d 42 66 bd 37 4a 83 bd
       0.14271012 -0.17430204 -0.05621587 -0.0641064
000320 24 ce 2a 3d 0d 74 0b be 1a 15 b8 3d b0 02 c6 bd
       0.041700497 -0.13618489 0.089884 -0.09668481
000330 f0 7f 3c be 7a a8 cc bd db a2 d6 3d b0 db 24 bc
       -0.1840818 -0.09993072 0.10480281 -0.010062143
000340 e9 cf 3f bb 22 68 14 3d f5 34 1d 3d 4e ea d4 3d
       -0.0029268211 0.03623212 0.038380582 0.103962526
000350 98 11 35 bd 00 b9 f4 bd ee 99 21 be 0a 55 2d be
       -0.04420623 -0.119493484 -0.15781376 -0.16926971

IN.0.bias f4 [8]
000000 0c 66 b5 3d 27 e8 e2 3b 93 44 db bd 76 e5 02 3e
       0.088573545 0.0069246474 -0.10706439 0.12782845
000010 e3 20 35 3d 54 c5 44 bd 46 43 66 3d e3 27 7d 3d
       0.044220816 -0.04803975 0.0562165 0.061805617

IN.1.weight f4 [8]
000000 7a 9a 7c 3f 59 f9 7f 3f ba ad 7c 3f b8 70 7f 3f
       0.9867321 0.9998985 0.98702586 0.9978137
000010 3d 3e 81 3f 0d cb 7b 3f 49 3a 81 3f 6f 76 81 3f
       1.0097119 0.98356706 1.0095912 1.0114268

IN.1.bias f4 [8]
000000 b4 f2 52 bc 9f 9f 80 bc e1 69 75 bc ce 95 5e bc
       -0.012875248 -0.015701113 -0.014978857 -0.013585521
000010 2e cb 0f 3c 86 0d 95 bc 57 95 80 3b 6a be 04 bc
       0.008776469 -0.018194925 0.0039240527 -0.008102039

IN.1.running_mean f4 [8]
000000 6e 7f 98 be b1 ce b1 3e af 44 bb bc 56 b0 90 3e
       -0.2978472 0.34728006 -0.0228599 0.28259534
000010 94 b7 a3 be b5 55 e4 3d 78 bb c7 3e 90 e3 e7 be
       -0.31975996 0.1114916 0.39010215 -0.45290804

IN.1.running_var f4 [8]
000000 c0 6d 07 3e 0b 37 01 3e 7a 7b e7 3d c4 07 f3 3d
       0.1322546 0.12618653 0.11302848 0.118667156
000010 e1 2f 01 3e a1 49 e7 3d 9d e3 01 3e ef f9 15 3e
       0.1261592 0.112933405 0.12684484 0.14646123

IN_both.0.weight f4 [8, 6, 3, 3]
000000 88 15 0c 3d 12 61 b1 bd 42 53 4c bd b1 2e 8a bd
       0.03420022 -0.08661093 -0.04988409 -0.06747187
000010 80 6e a3 3b 40 59 2b 3b c8 fc ba 3d ae 6f e8 3d
       0.004987538 0.0026145726 0.091302454 0.11349426
000020 f4 1e d7 bd 84 1e ea 3d 16 72 d5 bd 9a 5d 17 bd
       -0.10503951 0.11431602 -0.10422151 -0.0369545
000030 16 11 8c bd a9 47 06 be 54 fb 7a 3d 6e 34 84 bd
       -0.068391964 -0.13113274 0.06127484 -0.06455313
000040 74 b2 12 bd ce 1f e5 bd 86 ad bf 3d c4 ca ea 3d
       -0.035814717 -0.11187707 0.09359269 0.11464456
000050 7c 30 7e bd e9 6e a0 bd 80 3a 4d 3b 5c f3 bf bc
       -0.062057957 -0.078336544 0.0031315386 -0.023431472
000060 d0 fb 73 bd 28 2d c0 bc 0c a3 c8 bd 34 5d ad 3d
       -0.05956632 -0.023459032 -0.09796724 0.08465043
000070 d8 f5 4a bd ca fe dd 3d bc 7e af bc a8 c7 57 bd
       -0.04955086 0.10839613 -0.021422736 -0.05268064
000080 3c dd 29 bd f0 63 f2 bd b1 95 05 be 00 62 93 ba
       -0.04147075 -0.11835468 -0.13045384 -0.0011244416
000090 b0 ef bf 3c ac cc 9a bd 21 f0 d7 bd 9c c8 07 3d
       0.023429722 -0.07558569 -0.10543848 0.0331503
0000a0 b8 4e 56 3d 50 98 aa 3d f0 22 2f bd 72 15 a2 bd
       0.052321166 0.083298326 -0.04275793 -0.079142466
0000b0 c0 01 4b 3b 34 8f e1 3d 2e 56 fd bd f0 3b e0 3c
       0.0030976385 0.11013642 -0.12369953 0.02737233
0000c0 7c 6d 2f 3d 18 16 61 3d 00 38 54 ba 98 3e 51 bc
       0.04282902 0.05495271 -0.0008095503 -0.012771271
0000d0 0c 03 c8 3d 7e 60 e3 bd 94 ab af bc 40 11 6f bb
       0.09766206 -0.11102389 -0.02144412 -0.0036478788
0000e0 5e 32 08 3e 86 dc ea bd c8 f7 d3 3c 24 98 91 3d
       0.13300464 -0.11467843 0.025874987 0.07109097
0000f0 be 93 0e bd 80 e7 5d 3c aa 44 92 3d 98 40 19 bd
       -0.034808867 0.013543963 0.07142003 -0.037415117
000100 38 84 aa 3d a8 67 50 bd b1 0b 0a be ed 28 eb bd
       0.08326 -0.050880104 -0.13481022 -0.11482415
000110 96 40 32 bd da aa 6c bd 80 09 3a 3b b6 1f 88 bd
       -0.043518625 -0.057780124 0.002838701 -0.066466734
000120 b1 f5 a0 bd 9c 5e eb 3d da 36 04 be f0 3c 69 bd
       -0.07859362 0.11492655 -0.12911549 -0.05694288
000130 36 2c 97 bd e0 0b a5 3b bc 7a f5 3d 86 e2 b7 3d
       -0.073814794 0.005036816 0.119863 0.08978753
000140 e7 1e 8b bd ce 6e d0 bd b0 bc a6 3d 90 e7 49 bc
       -0.067930035 -0.10177384 0.08141458 -0.012323275
000150 ac 7c ff bd 50 5e 76 bd 49 97 00 be 12 42 cb bd
       -0.12474951 -0.060148537 -0.1255771 -0.09924711
000160 2c e9 f7 3d 90 d1 f3 bc 48 32 d3 3c 50 ab df bc
       0.12105021 -0.029763013 0.025780812 -0.027303368
000170 20 3a 0d 3d 83 4d 81 bd 6c 91 09 3e 94 59 7e 3d
       0.03447926 -0.06313612 0.1343438 0.062097147
000180 12 96 83 3d f4 07 3d 3d b3 48 81 bd 96 9a 7a bd
       0.06425108 0.046150163 -0.063126944 -0.06118258
000190 7c 83 4c 3d ee f9 02 be e3 03 06 be 80 b9 d5 bb
       0.04993008 -0.12790653 -0.1308742 -0.0065223575
0001a0 28 25 f4 3d 0a 7f b8 3d 60 fc 83 bb da d2 ab bd
       0.119211495 0.09008606 -0.004027888 -0.08389826
0001b0 d4 1d b2 bc b2 32 bd 3d 8c cd f0 3d 80 f6 45 3d
       -0.021742739 0.09238185 0.11757955 0.048330784
0001c0 5e 31 27 bd 0d bd 00 be f0 02 d4 3d d0 65 c2 3d
       -0.040818565 -0.12572117 0.10352123 0.094920754
0001d0 95 a8 8f bd 80 87 c1 3a e2 07 98 bd a0 06 bf 3b
       -0.07014576 0.0014765114 -0.074233785 0.005829647
0001e0 8e 75 0a be c5 df f1 bd 2e 28 7b bd b0 7b 4f 3c
       -0.13521406 -0.11810259 -0.061317615 0.012663767
0001f0 24 e7 bf 3d 00 bf 28 ba c2 3d be bd 8c d3 47 3d
       0.093702585 -0.00064371526 -0.09289123 0.04878573
000200 16 e3 f4 bd 68 63 ea 3d 8a 52 d0 3d 26 55 cf 3d
       -0.11957376 0.114447415 0.10171993 0.10123663
000210 8a 58 1e bd bc ad 5d 3d a8 87 dc 3c 06 f6 2a bd
       -0.038658656 0.054120764 0.026920155 -0.041738532
000220 68 86 fb 3d 6d c7 eb bd d8 5d bc 3d 74 8b 12 bd
       0.12281495 -0.11512647 0.09197587 -0.035777524
000230 59 0c 04 be 04 e9 74 3d a6 bf 85 3d 60 61 f5 bc
       -0.12895335 0.059792534 0.06530695 -0.029953659
000240 85 10 c8 bd 80 08 35 3b 16 e0 92 bd 48 23 a6 bc
       -0.09768776 0.0027623475 -0.07171647 -0.020280495
000250 7c 1c a0 3d 18 88 16 3d 2a c7 8f bd 40 b0 0c bc
       0.07817933 0.036750883 -0.070204094 -0.008586943
000260 d8 55 f1 3d a0 10 a8 3d 58 9b 12 3d cf 99 9e bd
       0.117839515 0.08206296 0.03579268 -0.077441804
000270 aa 05 02 3e 78 46 09 3d 14 55 cf bd 3e e2 06 3e
       0.12697473 0.03351447 -0.10123649 0.13172242
000280 60 d8 d4 3b 50 fd fd 3d 14 06 61 bd ce 2c f0 bd
       0.0064955205 0.12401831 -0.054937437 -0.11727296
000290 96 98 cd bd f2 5f e7 bd 58 e1 94 bc 98 19 d5 3c
       -0.10038869 -0.11297597 -0.018173859 0.02601318
0002a0 4c 69 0d bd 8c 3d 62 3d b8 4f 40 3d 0e 0c 0b bd
       -0.034524247 0.055234477 0.046951026 -0.033947043
0002b0 d6 c3 ba bd d0 17 ad 3c 58 71 da 3c 90 d4 87 3c
       -0.09119384 0.021129519 0.026665375 0.01658085
0002c0 16 de d4 3d 52 57 e5 3d 20 b4 cd bb 54 16 98 bc
       0.10393922 0.11198296 -0.006277576 -0.018565334
0002d0 c0 64 d8 3b 40 7d c3 3b c0 3c 30 3d c0 c7 4b 3b
       0.006603807 0.0059658587 0.043026686 0.0031094402
0002e0 70 17 65 3c 5c a3 bb 3d 56 80 e7 bd 5c e0 43 bd
       0.013982639 0.09162018 -0.11303775 -0.047821388
0002f0 c4 a1 3d 3d 20 ec ae bd da d3 c6 bd 12 9e 97 3d
       0.04629685 -0.08541131 -0.09708376 0.074031964
000300 50 56 74 3c 22 ea a9 bd 40 b5 27 bb 98 75 09 3d
       0.014913157 -0.082966104 -0.002559021 0.03355941
000310 a2 45 a0 3d 4a 79 a8 bd a8 3e 03 be 96 42 ca 3d
       0.078257814 -0.08226259 -0.1281687 0.098759815
000320 f6 ff b8 3d f4 86 fe 3d c4 d0 d5 bd c8 e0 73 3d
       0.09033196 0.12428084 -0.104402095 0.05954054
000330 00 f2 3f 3c 3e ca 09 3e 8c 07 52 bd 88 ed e5 3c
       0.011715412 0.13456056 -0.05127673 0.028067365
000340 81 79 06 be ca b6 7a bd 76 e7 3f bd 5e e6 cd 3d
       -0.13132288 -0.061209477 -0.046851598 0.10053705
000350 1e ad c1 bd 6f b3 ed bd d2 6c 69 bd d0 e6 66 3d
       -0.094568476 -0.1160649 -0.056988545 0.056372464
000360 9e 19 cf 3d ec f0 af bd 50 7b cf bc 28 1b c1 3c
       0.10112308 -0.08590874 -0.025327355 0.02357252
000370 c0 a6 ba bd 04 fb 79 3d 76 0c 85 3d c4 11 d8 bc
       -0.09113836 0.061030403 0.06496517 -0.026375659
000380 ca da b8 3d 00 d2 1e 3b 48 a9 07 be e6 86 08 be
       0.09026106 0.0024234056 -0.1324817 -0.1333271
000390 7e d6 a3 3d b8 6b 4b 3d 3e 96 07 3e 58 22 f2 bc
       0.079998955 0.049663275 0.13240907 -0.029557392
0003a0 d8 c3 c1 3d f8 8d 09 bd 00 c7 4e 3b c0 da e3 3b
       0.09461182 -0.033582658 0.0031551719 0.0069535673
0003b0 ac 42 2f 3d 44 9a bc bc da 3c f7 bd 88 85 f9 3c
       0.042788193 -0.023022778 -0.120721534 0.03045918
0003c0 ac b5 05 3e 08 dc 9e bd 9c 0a 40 3d 34 8d 42 3d
       0.13057584 -0.077568114 0.046885118 0.047497943
0003d0 00 84 c3 bd fb 0b 87 bd 10 3e d1 bd 4c 7a fa bc
       -0.095466614 -0.06594082 -0.102169156 -0.030575894
0003e0 b2 23 0a be e8 54 e3 3c 1c 8e 99 3d 88 85 c2 3d
       -0.13490179 0.027750447 0.07497808 0.09498125
0003f0 c8 bb 21 bd 72 e5 d5 bd 84 8e c4 bd 48 4f a0 3d
       -0.039485723 -0.10444154 -0.09597495 0.07827622

IN_both.0.bias f4 [8]
000000 5d 3a 85 bd 80 68 b8 3d d6 9d a7 3d 84 3e 54 3d
       -0.065052725 0.09004307 0.08184402 0.051817432
000010 85 aa 09 be 80 59 08 be 33 23 90 bd 20 82 c6 3c
       -0.13443954 -0.13315392 -0.07037964 0.02423197

IN_both.1.weight f4 [8]
000000 00 00 80 3f 00 00 80 3f 00 00 80 3f 00 00 80 3f
       1.0 1.0 1.0 1.0
000010 00 00 80 3f 00 00 80 3f 00 00 80 3f 00 00 80 3f
       1.0 1.0 1.0 1.0

IN_both.1.bias f4 [8]
000000 00 00 00 00 00 00 00 00 00 00 00 00 00 00 00 00
       0.0 0.0 0.0 0.0
000010 00 00 00 00 00 00 00 00 00 00 00 00 00 00 00 00
       0.0 0.0 0.0 0.0

IN_both.1.running_mean f4 [8]
000000 00 00 00 00 00 00 00 00 00 00 00 00 00 00 00 00
       0.0 0.0 0.0 0.0
000010 00 00 00 00 00 00 00 00 00 00 00 00 00 00 00 00
       0.0 0.0 0.0 0.0

IN_both.1.running_var f4 [8]
000000 00 00 80 3f 00 00 80 3f 00 00 80 3f 00 00 80 3f
       1.0 1.0 1.0 1.0
000010 00 00 80 3f 00 00 80 3f 00 00 80 3f 00 00 80 3f
       1.0 1.0 1.0 1.0

residual.weight f4 [8, 8, 1, 1]
000000 23 8a 01 be 75 7f f1 bd f6 27 54 3d 61 12 73 bd
       -0.12650351 -0.117918886 0.051795922 -0.0593437
000010 18 d8 f1 3d ce b2 87 bc 82 11 5f be 45 2c f6 bd
       0.11808795 -0.016564753 -0.21784022 -0.120201625
000020 cb f3 b7 bc ef 91 47 3c c8 8d 0f 3d 6d e5 7e 3e
       -0.022455117 0.012180789 0.035047323 0.24892206
000030 ba 82 ba 3e 8e 41 ae be d5 07 85 3e 43 76 cf 3b
       0.3642786 -0.3403439 0.25982538 0.0063312366
000040 e6 a9 8c 3d c5 d1 8b be e6 4f 7e bd 21 1f 80 bd
       0.06868343 -0.2730848 -0.062087916 -0.06255937
000050 c8 73 3e be 42 fa 88 be 98 71 a0 be cc 8e 4b bd
       -0.18598855 -0.26753432 -0.31336665 -0.04969673
000060 87 79 a9 be 37 a3 82 3d cd 99 5e 3d c7 b5 aa be
       -0.3310053 0.06378787 0.054345895 -0.3334181
000070 3d 58 04 be 4e 7b b8 be 72 d2 8b be b6 3f 57 be
       -0.12924285 -0.36031574 -0.27308995 -0.21020398
000080 86 04 4e be 73 eb a9 bc 1d 0f d8 bc df 0f 85 3d
       -0.20118913 -0.020742154 -0.026374394 0.06497168
000090 d3 4f eb 3d 98 0c bc be dc 98 cb bd 1b 24 43 3e
       0.11489835 -0.36728358 -0.09941265 0.19056742
0000a0 19 c8 aa 3e a4 46 38 3e 5d f5 aa bd 01 33 99 be
       0.33355787 0.17995697 -0.083475806 -0.29921725
0000b0 29 ef a3 3d 02 8f 87 bd b7 07 25 bd fb d0 6b 3d
       0.080046006 -0.066190735 -0.04029056 0.057572346
0000c0 1a 21 a2 be d1 47 86 3d ba 75 a9 bd 29 e2 86 be
       -0.3166588 0.06556667 -0.08274408 -0.26344422
0000d0 cd 8a 76 3e 4a 8b 89 3c f6 a1 2a be be 86 88 3d
       0.24076386 0.016790051 -0.16663346 0.06666325
0000e0 90 62 81 bd 4b 42 36 3e 06 3d 4d 3e 51 99 11 be
       -0.063176274 0.17798726 0.2004281 -0.14218642
0000f0 22 9a ac be a4 a7 98 3e e3 d7 0d 3d ea 7d d4 3d
       -0.33711344 0.298154 0.034629714 0.10375579

residual.bias f4 [8]
000000 bf 94 49 3e 9b 3f 63 bc a2 49 95 be 0e 7a 81 be
       0.19685648 -0.013870145 -0.2915774 -0.25288433
000010 bb ec 0a be 90 1c 9e be ad a6 96 3e b6 e1 ab be
       -0.13566868 -0.30881166 0.2942404 -0.3357064

block.0.depthwise.weight f4 [8, 1, 3, 3]
000000 15 8f 9c bd 95 8c 90 bd d7 ad 1e 3e 0b a5 85 be
       -0.07644478 -0.07058064 0.15496002 -0.2610248
000010 89 5d e6 3d 2e 03 f3 bd 53 99 78 3e 02 3a 94 3e
       0.11248309 -0.11865841 0.24277239 0.28950506
000020 9e 85 94 3c d6 6d 55 be 22 15 7c 3e 90 a4 e3 3c
       0.01813012 -0.2084268 0.24617437 0.02778843
000030 c7 ca 24 be 6a 58 a4 3e 6c 3f 14 be 52 9d a2 3e
       -0.16092978 0.32098705 -0.14477319 0.3176065
000040 ca 54 f8 3d 2f d0 41 3e 95 bd 80 be c7 65 90 3d
       0.12125547 0.18927072 -0.2514464 0.070506625
000050 ef 89 9a 3e 68 6b 28 3e 69 de 19 3e c3 51 a2 3d
       0.3018336 0.16447222 0.15026249 0.07925751
000060 f3 e5 92 bc 43 f1 7b be cb 2d 9b be 70 9a 09 be
       -0.017931914 -0.24603753 -0.30308375 -0.1343782
000070 10 46 51 bc 75 f5 0e be 4c 7c 22 bd 0c 84 15 be
       -0.012773052 -0.13960822 -0.03966932 -0.14601153
000080 6f 98 36 3e 83 0d 32 3d 3e 0e 99 bd 61 91 8f bd
       0.17831586 0.043469917 -0.074734196 -0.07010151
000090 64 37 68 3e 06 96 ab be 92 e0 83 be 78 56 15 3c
       0.2267738 -0.33512896 -0.2575727 0.009114854
0000a0 a8 35 87 3e cd 8b 50 be db d4 99 be f2 8b 9b be
       0.26408124 -0.2036583 -0.30045208 -0.30380207
0000b0 29 d7 9e be 00 fe fc bd 74 42 82 be f6 b1 32 be
       -0.3102353 -0.12353134 -0.25441325 -0.17450699
0000c0 c9 8b 27 bd 7a d0 ae bd 67 19 b8 3a e5 f5 12 3e
       -0.040904794 -0.085358575 0.0014045656 0.14351614
0000d0 ca a8 06 3e 00 56 40 3e 48 84 a3 3e c1 07 67 be
       0.13150325 0.18782806 0.3193686 -0.22561552
0000e0 99 d1 9c be 7d 23 f5 bd 75 71 da 3c 7e 6a 84 3e
       -0.3062866 -0.119696595 0.026665429 0.25862497
0000f0 51 17 b1 3e af 25 9a 3e 48 e4 08 3d 17 b0 6a 3e
       0.34588102 0.30106875 0.03342083 0.22918735
000100 f6 89 63 be c3 59 41 3e 7a 46 de bd a4 95 f3 bd
       -0.22220597 0.18881898 -0.10853286 -0.11893776
000110 28 c9 85 3e c1 d0 ae 3e 60 0c d7 bd cc b7 7c 3e
       0.26130033 0.34143642 -0.10500407 0.24679488

block.0.pointwise.weight f4 [8, 8, 1, 1]
000000 83 41 99 be 05 01 a1 bd 59 d3 8e 3e 9b 16 80 3e
       -0.29932794 -0.078615226 0.2789562 0.25017247
000010 4a 29 9e bd a1 84 63 3e 18 1a 8f be f6 18 ec bd
       -0.07722719 0.22218563 -0.27949595 -0.115281984
000020 b0 ec 73 be 9c 0a d7 bd c6 55 9a be e7 88 ae bd
       -0.23820758 -0.105000705 -0.30143565 -0.08522206
000030 ca 1a ab 3e 5e a2 f5 bc 72 94 c6 3d 64 3c 16 be
       0.33418876 -0.02998465 0.096962824 -0.14671475
000040 5f 7f d9 bd e4 0c bb 3e 85 ef ad 3e 08 9f a5 be
       -0.10619997 0.36533272 0.339718 -0.32347894
000050 df 44 89 3e 8d e8 97 be ab 40 0e be 47 e3 69 3d
       0.26810357 -0.2966961 -0.13891856 0.057101514
000060 89 4a 20 3e d1 4e 12 3e 37 6c 25 3e a0 14 bd be
       0.15653433 0.14287879 0.16154562 -0.36929798
000070 af 42 a5 be 9f b2 1a be 19 10 d8 bb 59 4a ac bd
       -0.32277438 -0.15107201 -0.006593716 -0.08412618
000080 f6 2a 90 3d 5b b8 5f 3e f1 e1 dc 3d 8a bd 98 be
       0.07039444 0.2184767 0.107852824 -0.29832107
000090 5d c9 9a 3d f4 c6 f6 3b a7 3d 5c 3e cc f3 f1 3a
       0.07557938 0.0075310413 0.21507894 0.0018459498
0000a0 8c fd 5a be 54 fa ae 3e 1e 56 39 be b5 20 4d 3e
       -0.21385783 0.3417536 -0.18099257 0.20032008
0000b0 20 43 2b bd 35 77 1a 3e 8b 5d 96 3e 88 c6 94 bc
       -0.041812062 0.15084536 0.29368243 -0.018161073
0000c0 fc 27 af 3d 3e ce 98 3e b7 24 1b 3e 65 74 0c 3e
       0.08552548 0.2984485 0.15150724 0.13716276
0000d0 65 bf fb bd b1 af 8e be aa 24 a2 3d e5 92 26 3e
       -0.12292365 -0.27868417 0.07917149 0.16266973
0000e0 82 0b 67 be dc fb bd 3d 90 7f 70 3e a9 f4 13 be
       -0.22562984 0.09276554 0.23486161 -0.14448799
0000f0 01 81 b6 be aa ab 31 be 11 5e 88 bd f3 f5 13 be
       -0.35645297 -0.17350641 -0.06658567 -0.14449291

block.1.weight f4 [8]
000000 3d d1 7c 3f 2c 3f 7c 3f 68 56 82 3f ab 49 82 3f
       0.9875677 0.9853389 1.0182619 1.0178732
000010 3a f2 80 3f 17 35 7c 3f bb 46 80 3f 1a ac 7f 3f
       1.0073922 0.9851851 1.0021585 0.9987198

block.1.bias f4 [8]
000000 44 eb f0 3b 79 ab 8c bc be 49 7c 3c f5 40 00 3c
       0.0073522646 -0.017171608 0.015398441 0.007827987
000010 e4 4a 23 3b 28 a3 81 bc 93 79 7e 3c 81 1b 45 bc
       0.0024916464 -0.01582487 0.015531915 -0.012030483

block.1.running_mean f4 [8]
000000 46 07 20 be 24 43 38 be 57 43 20 bb e0 c0 64 3e
       -0.15627775 -0.17994362 -0.00244542 0.22339201
000010 99 33 de 3d 0a cf cb 3d 59 92 38 3e 64 40 03 3e
       0.10849685 0.09951599 0.18024577 0.12817532

block.1.running_var f4 [8]
000000 0b a1 11 3e ea 0f 53 3e b7 ef 4e 3e e9 81 19 3e
       0.1422159 0.2061154 0.20208631 0.14990963
000010 4b 8f 23 3e f2 a6 12 3e a8 2f 06 3e 8d d8 06 3e
       0.1597263 0.14321497 0.13104117 0.13168545

block.3.depthwise.weight f4 [8, 1, 3, 3]
000000 d1 46 40 bd ee 44 93 3e 68 e2 51 be db 13 9e 3e
       -0.046942536 0.28763527 -0.20496523 0.30874524
000010 80 6c 64 be 0b de 97 3e e9 79 59 3e 6d 9b 90 3e
       -0.22307014 0.29661593 0.21237911 0.2824358
000020 89 ed 82 be 08 51 90 be b9 76 9d bc a5 0f 67 3d
       -0.2557185 -0.28186822 -0.01922165 0.056411404
000030 18 a0 2f be a7 a7 09 be 33 93 70 3e 2e c9 48 3e
       -0.17150915 -0.1344286 0.23493652 0.19607994
000040 b9 98 02 be 49 ac 7d 3e a3 18 69 bd f8 8b 7b be
       -0.12753572 0.24772753 -0.05690826 -0.24565113
000050 97 ae 26 be 2c 46 09 be f1 20 e7 bd 15 cb 11 3e
       -0.16277538 -0.13405675 -0.1128558 0.14237626
000060 01 f0 ee 3d 16 16 f8 bd 6d 8c 81 3d f2 2d 3a bd
       0.11666871 -0.121135876 0.06325612 -0.045453973
000070 15 f1 a1 3e b1 e6 17 3e 0a 6c 94 be a8 69 aa bc
       0.31629243 0.14834096 -0.28988677 -0.020802334
000080 ff 4a 3a be 16 af c0 3d bd 06 30 be fc f4 83 38
       -0.18192671 0.09408395 -0.1719007 6.292199e-05
000090 24 1d 18 3e e5 73 9d 3e 29 59 8f be 9d 88 8a 3e
       0.14854866 0.30752483 -0.2799771 0.27057353
0000a0 13 e9 3f be 6c 55 e1 3d c8 f3 2f be 4f b8 9c 3e
       -0.18741255 0.11002621 -0.17182839 0.30609366
0000b0 d2 83 20 3e 7c 8e 55 3d af 5b a0 3e 65 11 f0 bd
       0.15675285 0.052137837 0.3131995 -0.11722068
0000c0 cc 85 9b bd 3f f4 5f 3e ae 54 80 be 4d ad a4 be
       -0.07593879 0.21870516 -0.25064605 -0.32163468
0000d0 28 0e 4d 3e f7 ee 8d bd 9c da 39 be d7 0b 4a be
       0.20024931 -0.069303446 -0.18149799 -0.19731079
0000e0 48 a5 e8 3d 8f 51 99 be 4c 68 2f 3d 63 f9 38 be
       0.1135965 -0.29945037 0.042824075 -0.18063883
0000f0 5b cc c2 3d 01 0e 12 ba 71 9b 36 3d de e1 28 be
       0.09511634 -0.0005571545 0.044581834 -0.16492411
000100 3e eb f9 3d 14 3f 68 be 3a 26 00 be bc b7 75 bd
       0.12203072 -0.22680312 -0.12514582 -0.059989676
000110 a9 a5 2c 3e d3 a8 14 be 81 c9 80 be 3d be d9 bd
       0.1686007 -0.14517526 -0.25153735 -0.10631988

block.3.pointwise.weight f4 [8, 8, 1, 1]
000000 6e 22 33 be 4a fd 85 be fc 21 a2 be 1f 70 af 3e
       -0.17493603 -0.26169807 -0.31666553 0.3426523
000010 cd b7 7f bd ab 14 fc 3d 2e 24 95 be dd 39 66 3e
       -0.062431145 0.123086296 -0.29129165 0.2248301
000020 e3 0c 98 be 4c 83 32 be 99 4d 1b 3e 44 8b 8d bd
       -0.29697332 -0.17432898 0.1516632 -0.069113284
000030 d5 a1 4f 3e 7e c5 62 bc 79 09 a9 3e fc be ae be
       0.20276578 -0.013841031 0.3301504 -0.34130085
000040 ab 8f 9a 3e e0 af 28 3e 5d d8 28 be 81 aa 81 bd
       0.30187735 0.16473341 -0.16488786 -0.06331349
000050 33 b1 89 be c7 49 e4 3c 0b ce 3b be fd 7a 2d be
       -0.26893005 0.027867211 -0.18340318 -0.16941448
000060 40 83 67 bd 8c 7d 7e 3e 54 b5 75 be 15 46 fc 3d
       -0.056521654 0.2485258 -0.23994952 0.123180546
000070 c0 e9 03 3e 93 86 13 bd 9f 19 2b 3e d9 c8 0c be
       0.12882137 -0.03601701 0.16708992 -0.13748492
000080 3c e0 97 3d b4 36 4f 3e 34 35 b3 3e e3 98 26 3e
       0.07415816 0.20235711 0.35001528 0.16269259
000090 0f 08 4f be 28 95 81 3e b7 d6 a7 be f1 ac 25 be
       -0.20217918 0.2530911 -0.32781002 -0.16179253
0000a0 7e a8 75 be db 48 8c 3c 2c 56 8d be e1 51 c0 3d
       -0.23990056 0.017124584 -0.27604806 0.09390617
0000b0 ae 17 26 be 62 0f 54 be 88 b4 3b 3e a2 7e d7 bd
       -0.1621997 -0.20708993 0.18330586 -0.105222
0000c0 0c 12 b5 3d 1f af 4c 3e 52 0d 2a be 66 68 f9 3d
       0.08841333 0.19988678 -0.16606644 0.121781155
0000d0 c6 0a a7 be f7 b8 9b 3e 63 05 86 be c2 cd 87 be
       -0.32625407 0.30414554 -0.26175985 -0.26524168
0000e0 e4 04 9e 3e 26 60 e0 3d 60 fd 07 be f2 bc ac be
       0.30863106 0.10955839 -0.13280249 -0.33737904
0000f0 1d 10 99 3e c1 9d 88 3d 4a 67 9a be 33 5e 0f 3e
       0.29895106 0.06670714 -0.30156928 0.14000778

block.4.weight f4 [8]
000000 eb 37 81 3f a9 06 81 3f d7 5f 7b 3f 90 51 82 3f
       1.009519 1.0080158 0.98193115 1.0181141
000010 3e 73 7b 3f 55 69 82 3f a7 bc 7b 3f fb 51 7c 3f
       0.9822272 1.0188395 0.98334736 0.9856259

block.4.bias f4 [8]
000000 66 3c e9 3b ba 3a c8 ba 31 fc 92 bc 32 23 8a bc
       0.0071177958 -0.0015276291 -0.01794252 -0.016862486
000010 96 bb 93 bc d4 29 9e 3c 0e 3b c8 bb c0 11 a6 bc
       -0.018033784 0.019307055 -0.0061105555 -0.020272136

block.4.running_mean f4 [8]
000000 41 26 81 bc 07 45 af bc e1 b3 f1 3d ea 8e 64 3d
       -0.015765311 -0.02139522 0.11801887 0.055800356
000010 18 9a 60 3c cc 9a 67 bd 9b 4b b9 3d 5a 26 49 3e
       0.013708614 -0.05654411 0.09047624 0.19643536

block.4.running_var f4 [8]
000000 d9 17 0f 3e f8 76 01 3e fb b3 0f 3e 4e 99 f5 3d
       0.13973941 0.12643039 0.14033501 0.11992131
000010 26 cf 20 3e a1 27 ec 3d 30 87 1f 3e f9 ac 1f 3e
       0.15704021 0.11530996 0.15578914 0.15593328

block2.0.depthwise.weight f4 [8, 1, 3, 3]
000000 69 3c 90 3e 0a 20 ce bd 45 78 ac be d9 dc 16 be
       0.2817109 -0.10064705 -0.33685508 -0.14732684
000010 7f 39 39 be 0c 6f 78 3e 11 d7 a2 3e 24 c6 18 3e
       -0.1808834 0.24261111 0.31804708 0.14919335
000020 bd 42 85 3e 79 ee ea 3d d5 b7 b0 3d f6 9d 7a 3c
       0.2602748 0.11471266 0.08628813 0.01529645
000030 9a b0 9a 3d af ad 54 be f9 08 d7 bd 93 3c f3 bd
       0.07553215 -0.2076938 -0.10499758 -0.11876788
000040 1b 91 26 3e ae 99 9d bd 26 cc 10 3e 69 9d 7d 3e
       0.16266291 -0.07695328 0.14140376 0.24767078
000050 ea 3d b2 3c 35 04 1a be a7 99 3f be 30 34 2a 3d
       0.021758039 -0.15040667 -0.18710957 0.041553676
000060 7d 83 06 be 3c 3f cf 3b a3 02 e4 3d d2 a1 93 3b
       -0.13136096 0.006324677 0.111333154 0.0045053745
000070 0d 31 0c bb 1f 36 88 3e b1 55 47 be 86 c4 a8 be
       -0.0021391541 0.2660379 -0.19466282 -0.32962435
000080 d3 94 69 bd a1 e5 8b bd df 86 4c 3e 8a b4 27 3e
       -0.057026695 -0.068309076 0.19973324 0.16377464
000090 76 e7 5a 3e 76 6d 09 be 27 b3 62 3e 6a bd 8a bd
       0.21377358 -0.13420662 0.22138654 -0.06774409
0000a0 b9 8f 5e be a3 2d 8f 3e e4 62 d0 bb d0 fc 0c 3e
       -0.21734513 0.27964506 -0.006359445 0.13768315
0000b0 bd cb 83 bb 36 19 75 3e 1b 45 86 be 32 c5 26 be
       -0.00402209 0.23935398 -0.26224598 -0.16286162
0000c0 92 57 6a bd a8 eb 55 be cb 0b 6e be ca cc fb bd
       -0.05721242 -0.20890677 -0.23246686 -0.1229492
0000d0 f6 eb 8f bd 8f fb a3 3d 40 6f ae 3e 0e ce 15 3d
       -0.07027428 0.08006965 0.34069252 0.036573462
0000e0 f6 08 3b bd a0 3b b2 bb 80 f8 85 bd 1d 6c 82 3d
       -0.045662843 -0.0054392368 -0.06541538 0.06368277
0000f0 55 96 3b be 77 0f 26 be 87 12 5d 3e 44 19 bc bc
       -0.18319066 -0.16216837 0.21589099 -0.022961266
000100 c7 d7 f8 3d 48 85 ca 3d 2d f3 e3 bd bd 91 8e 3e
       0.12150531 0.09888703 -0.111303665 0.27845564
000110 41 a7 a1 3d c0 d7 49 be 74 77 9c 3e 27 4f 87 3e
       0.07893229 -0.19711208 0.30559886 0.26427576

block2.0.pointwise.weight f4 [8, 8, 1, 1]
000000 be b8 83 3e c9 3c 80 be b3 bd 5f 3e 5e 4c 7b 3e
       0.25726885 -0.25046375 0.21849708 0.2454085
000010 ce 11 12 3d 00 1b 31 3e 31 24 91 be c2 d5 9a 3c
       0.03566151 0.17295456 -0.28347924 0.018900756
000020 4a 99 10 3c 86 3e 4b 3e 98 59 a6 be 81 9c 65 3e
       0.008825609 0.1984807 -0.3249023 0.22422983
000030 9a 70 aa 3e 28 19 3b 3c c1 e7 94 3e 34 43 78 bd
       0.33289033 0.011419572 0.29083064 -0.060610965
000040 71 4b 07 3d e9 79 b5 bc bd a4 23 3e 90 56 7d be
       0.03303093 -0.022152858 0.15980811 -0.24740052
000050 2c 3c 92 bc f1 0c 3a bd d9 7a 73 3c af 92 5c 3c
       -0.017850958 -0.045422498 0.014860832 0.0134627065
000060 e9 d7 88 3e a0 b0 1c bc 03 c5 58 3e 9a d5 6b bd
       0.26727226 -0.009563595 0.21168904 -0.057576753
000070 2e 11 1b 3e 5f ab 8e 3e a1 a8 8c 3d 74 78 85 3e
       0.15143272 0.2786512 0.06868101 0.2606846
000080 bc f5 10 3e c9 7c 9f be 6f 79 cb bd 20 09 19 3e
       0.1415624 -0.3114989 -0.09935271 0.14944887
000090 fc 06 30 be 45 dd cd 3d 5d 7e 87 bd 7e 93 4d 3d
       -0.17190164 0.100519694 -0.06615899 0.050189488
0000a0 80 52 c7 bd 3f b3 42 be ed 20 a2 be 4d 20 0f 3e
       -0.097325325 -0.1901369 -0.31665745 0.13977166
0000b0 03 d7 86 3e c7 81 19 3e 60 e7 25 bd 4d a5 81 3e
       0.26335916 0.14990912 -0.04050386 0.25321427
0000c0 6b 90 8b 3e 3a e5 12 3e dd ae 92 3e 7d 79 82 3e
       0.2725862 0.14345255 0.28649035 0.25483313
0000d0 94 f5 69 3d dc b4 97 3e aa 31 94 be 31 7d 6c 3e
       0.057118967 0.29630172 -0.2894414 0.23094632
0000e0 e1 13 b5 3e 4a 10 3f be b1 ee 82 3e d2 5a 9b 3e
       0.3536673 -0.18658558 0.25572732 0.30342728
0000f0 1c ef ea 3c 0e 6c 30 be 08 73 aa 3e 0a 5d 8c be
       0.02867847 -0.1722872 0.33290887 -0.27414733

block2.1.weight f4 [8]
000000 8b 4d 80 3f 78 e6 7e 3f 08 87 7b 3f 07 ff 7e 3f
       1.0023664 0.9957042 0.98252916 0.9960789
000010 47 1d 7b 3f 15 83 80 3f 48 88 7c 3f 35 1f 7d 3f
       0.9809155 1.0040003 0.9864545 0.98875743

block2.1.bias f4 [8]
000000 8a 20 93 3c 83 a6 25 bc 5f 0b 93 bc 6f 57 5b bc
       0.017959852 -0.0101105 -0.017949758 -0.013387545
000010 c1 32 9e bc fa 36 97 bc 4f fa d2 bb c0 47 7c bc
       -0.01931131 -0.018458832 -0.0064385305 -0.015397966

block2.1.running_mean f4 [8]
000000 e2 9d 62 bc e6 fb 52 3d 2b bc f8 3c 28 e3 14 3d
       -0.0138315875 0.05150976 0.030363163 0.036349446
000010 3f bc 56 bc 6f 04 87 b9 51 f3 9e bc 0e 36 02 3e
       -0.013106405 -0.0002575251 -0.019403132 0.12715933

block2.1.running_var f4 [8]
000000 27 36 36 3e 0c fa 10 3e eb 14 f3 3d 43 12 6d 3e
       0.17794095 0.14157885 0.11869224 0.23151498
000010 55 65 28 3e 3b e7 34 3e 4c 49 86 3e f9 8a 7b 3e
       0.16444905 0.17666332 0.26227796 0.24564733

out.0.weight f4 [3, 8]
000000 c4 f1 31 be 19 26 4a be 60 25 95 3d 71 8e ac 3e
       -0.17377383 -0.19741096 0.07282519 0.33702424
000010 87 5a 90 3e 06 00 56 3e f9 6d 97 bd 99 cb 81 3e
       0.28194067 0.20898446 -0.073940225 0.25350645
000020 67 75 fe 3c 7b 74 70 3e b5 7d 57 3e b4 a9 1c 3e
       0.031061841 0.23481934 0.21044047 0.15299112
000030 aa 6f d4 bd 9b 0a 00 be 34 d6 93 3e b1 f8 ee bd
       -0.10372861 -0.12504046 0.28874362 -0.11668528
000040 92 fc 0b be 4d 45 06 be 38 5a c3 3d cb 57 02 bc
       -0.13670567 -0.13112374 0.09538692 -0.007955502
000050 4c 46 a8 3e aa da 29 3e 69 1f 29 be d0 b7 75 3e
       0.32866132 0.1658732 -0.16515888 0.239959

out.0.bias f4 [3]
000000 ca 63 54 be 66 fb 93 3e 11 85 9a 3e
       -0.20741192 0.2890274 0.30179647
