saved_models/Flame_two_stream_rgb_index0_epoch3_final.pth (torch, 41474 bytes, 66 tensors)

stream1.IN.0.weight f4 [8, 3, 3, 3]
0	0xbe407fee	-0.18798801
1	0xbdeb33ff	-0.11484527
2	0xbe327b34	-0.17429811
3	0xbe196ebf	-0.14983653
4	0x3e1ac61b	0.15114634
5	0xbdc798f5	-0.09745971
6	0x3dfcf108	0.123506606
7	0x3d8f9171	0.070101626
8	0xbe1be842	-0.15225318
9	0x3b98d8e3	0.004664527
10	0x3cb9617e	0.022629496
11	0xbe260ab2	-0.16215017
12	0xbe38dc02	-0.18052676
13	0x3de56225	0.1120036
14	0xbe29ee04	-0.16594702
15	0x3dca50f5	0.098787226
16	0xbdd786e2	-0.10523774
17	0xbdaf451e	-0.08558105
18	0xbd66413f	-0.056214567
19	0xbe32c72a	-0.17458788
20	0xbd77d66e	-0.06050723
21	0x3d95e7ac	0.073195785
22	0x3d1e59ba	0.03865979
23	0x3e2b390d	0.16720982
24	0xbd25fe8c	-0.040525958
25	0x3da0c740	0.07850504
26	0xbc252682	-0.010079982
27	0x3dc258fc	0.09489629
28	0xbd349e90	-0.04409653
29	0xbe367b72	-0.17820528
30	0xbe07bae7	-0.13254891
31	0xbe496d57	-0.19670616
32	0xbe45977e	-0.19296071
33	0x3dbd0a98	0.09230536
34	0x3e2aed41	0.16692068
35	0x3da0b170	0.078463435
36	0x3df2ab55	0.11849085
37	0xbd4d7ddd	-0.05016886
38	0x3deb3afc	0.1148586
39	0x3e1f6146	0.1556445
40	0x3c35f4aa	0.011105696
41	0xbe059876	-0.1304644
42	0x3dcbe176	0.09955113
43	0xbe2ea438	-0.17054832
44	0xbe00f353	-0.12592821
45	0xbe07c03b	-0.13256924
46	0x3cb357c9	0.021892445
47	0xbd772f44	-0.06034781
48	0xbda190f1	-0.078889735
49	0xbe3e4e59	-0.18584575
50	0xbdb5c170	-0.08874786
51	0x3e18a149	0.14905275
52	0x3dd0dacf	0.101979844
53	0xbd7a16c3	-0.061056864
54	0x3ca1cc35	0.019750694
55	0xbc8c9cc5	-0.017164597
56	0x3dfc0a94	0.12306705
57	0xbcfba5e5	-0.030718753
58	0xbd644263	-0.055727374
59	0xbdda5353	-0.10660424
60	0x3dc807a2	0.09767081
61	0x3e35520a	0.17707077
62	0xbc7ed268	-0.015553094
63	0x3d91d936	0.07121508
64	0xbe495385	-0.19660766
65	0xbe271cea	-0.16319624
66	0x3e0d52ce	0.13801119
67	0x3d852e15	0.0650293
68	0x3de53454	0.111916214
69	0xbe2ae3f5	-0.16688521
70	0xbc8a157f	-0.016855953
71	0xbdc51cf6	-0.096246645
72	0xbd707f03	-0.058714878
73	0x3dc98831	0.098404296
74	0xbd9b0c0b	-0.075706564
75	0x3d1ee1fe	0.03878974
76	0xbe4f2210	-0.20227838
77	0x3dcf1ff9	0.1011352
78	0xbe11cb74	-0.14237767
79	0xbdf8e876	-0.121537134
80	0xbd937083	-0.07199194
81	0x3db7804d	0.08960018
82	0xbe44d34b	-0.19221227
83	0x3bdf688f	0.0068178843
84	0xbd295604	-0.041341797
85	0xbb83cdd6	-0.0040223403
86	0xbdb591fe	-0.088657364
87	0xbe4fceb0	-0.20293689
88	0xbdd1954f	-0.102335565
89	0xbe016767	-0.12637101
90	0x3d0aa0d5	0.033844788
91	0x3daea6fb	0.08527943
92	0xbe0c0f78	-0.13677776
93	0x3e20bb08	0.15696347
94	0xbe05e43d	-0.13075347
95	0xbd0494b4	-0.032368377
96	0x3c9305ac	0.01794704
97	0x3c7f48d4	0.015581328
98	0x3aecd01a	0.001806739
99	0xbdb04c7f	-0.086083405
100	0xbe38bb7e	-0.18040273
101	0xbde0ffbd	-0.10986278
102	0xbe03b75f	-0.1286292
103	0xbe27b4a3	-0.16377501
104	0x3e3094a6	0.17244205
105	0xbe2f6d45	-0.17131527
106	0x3e4a2f24	0.19744545
107	0xbda654fd	-0.08121679
108	0x3e2d4244	0.1691981
109	0xbdd571e8	-0.104221165
110	0x3cabc1ba	0.0209664
111	0xbe23d633	-0.1599968
112	0x3d938800	0.07203674
113	0xbe086024	-0.13317925
114	0xbcd803b8	-0.02636896
115	0xbd66ebc2	-0.05637718
116	0xbb44dfcc	-0.003004062
117	0xbdc2ab93	-0.095053814
118	0x3e2d3c96	0.16917643
119	0x3e298aee	0.16556904
120	0x3cf63d0d	0.030058408
121	0x3dc8a21b	0.09796544
122	0x3d8f3d25	0.06994084
123	0x3d945b77	0.07244008
124	0xbe004880	-0.12527657
125	0x3d08288a	0.033241786
126	0x3e27be67	0.16381226
127	0xbc3aa769	-0.011392453
128	0xbe248eeb	-0.16070144
129	0xbaffc823	-0.0019514601
130	0xbe2d960b	-0.16951768
131	0x3d823c79	0.063591905
132	0x3df4a7a2	0.11946036
133	0xbd3b8607	-0.045782115
134	0xbe3830fa	-0.17987433
135	0xbe131809	-0.14364637
136	0x3d7c498d	0.06159358
137	0x3cc94792	0.02457026
138	0x3de894c6	0.11356501
139	0x3e0cf1c3	0.137641
140	0x3d26ad33	0.04069252
141	0x3dfbd4fc	0.12296483
142	0xbe2981c3	-0.16553406
143	0xbd818218	-0.063236415
144	0x3de5301d	0.111908175
145	0xbe0d7473	-0.13813953
146	0x3c3ce49f	0.011529117
147	0x3d88d7cf	0.06681787
148	0x3dd8d454	0.105873734
149	0x3e11aa8f	0.14225219
150	0x3de5cbe0	0.11220527
151	0xbe34de78	-0.1766299
152	0xbdba5f57	-0.09100216
153	0x3d364809	0.04450229
154	0x3e3037ef	0.17208837
155	0xbdcea1f4	-0.10089484
156	0x3e153d61	0.14574195
157	0x3c8520d0	0.016250998
158	0x3e44d48f	0.1922171
159	0x3d267f47	0.040648725
160	0xbd5e6321	-0.054293755
161	0x3d8c257a	0.068430856
162	0x3e45fefe	0.19335553
163	0xbd5f00f3	-0.054444265
164	0x3e1b2320	0.15150118
165	0xbd190510	-0.037358344
166	0x3e0be092	0.13659886
167	0x3dea3167	0.11435204
168	0x3d27781f	0.04088604
169	0x3e025cfd	0.12730785
170	0xbd3f34a5	-0.046681065
171	0xbde56e5d	-0.11202691
172	0x3d060a21	0.032724503
173	0x3daad911	0.083421834
174	0x3d0bc798	0.034125894
175	0xbdf219c1	-0.118213184
176	0xbdeb3fc5	-0.114867724
177	0xbdd7440d	-0.105110265
178	0x3e14311f	0.14471863
179	0x3c661f9f	0.014045625
180	0x3dfa907b	0.12234589
181	0xbd7f0e14	-0.062269285
182	0xbb89b19c	-0.004202081
183	0x3e00a2d8	0.1256212
184	0xbe061cc9	-0.13096918
185	0xbe2a4616	-0.16628298
186	0xbdf2baee	-0.1185206
187	0x3d509361	0.0509218
188	0xbe2adae7	-0.16685067
189	0xbe20401f	-0.1564946
190	0xbe36ef86	-0.17864808
191	0x39b97dc1	0.00035379644
192	0xbdad9890	-0.084763646
193	0xbd042d29	-0.03226963
194	0xbe0be3ca	-0.13661113
195	0xbdc22026	-0.09478788
196	0x3ce1787f	0.027523277
197	0xbe415db7	-0.18883406
198	0xbd0ad760	-0.033896804
199	0x3d5c6981	0.053811554
200	0xbdd73821	-0.105087526
201	0x3e3fa690	0.18715882
202	0xbd6659ee	-0.056238107
203	0x3df9d92b	0.12199625
204	0xbdf3ccf6	-0.119043276
205	0x3c648ded	0.013949853
206	0x3b065f99	0.0020503758
207	0xbe280dbf	-0.16411494
208	0xbd37e372	-0.044894643
209	0x3e38a009	0.18029799
210	0x3dc94543	0.09827664
211	0xbd649f71	-0.055816118
212	0x3de46861	0.11152721
213	0x3c81912e	0.015816297
214	0x3e27bc50	0.1638043
215	0x3dad8f80	0.08474636

stream1.IN.0.bias f4 [8]
0	0xbd449950	-0.047997773
1	0x3dc7475d	0.09730408
2	0xbd8595c9	-0.0652271
3	0xbdc5d1cf	-0.096591584
4	0xbe094f74	-0.13409215
5	0xbe387701	-0.18014146
6	0x3e18411e	0.1486859
7	0xbdec71d5	-0.11545149

stream1.IN.1.weight f4 [8]
0	0x3f80b10c	1.005403
1	0x3f7c20f8	0.98487806
2	0x3f7b2379	0.98101
3	0x3f81f1b0	1.0151882
4	0x3f7fc595	0.9991086
5	0x3f814a4c	1.0100799
6	0x3f8227b9	1.0168372
7	0x3f7bbc18	0.98333883

stream1.IN.1.bias f4 [8]
0	0x3c8e8bea	0.0174007
1	0xbc5919f0	-0.013250813
2	0xbca06832	-0.019580934
3	0x3c97021e	0.018433627
4	0xba1ac2e5	-0.00059036753
5	0x3c875c95	0.016523639
6	0x3c405be1	0.011740656
7	0x3c533a2f	0.01289229

stream1.IN.1.running_mean f4 [8]
0	0xbedc50e8	-0.43030477
1	0xbe1429a3	-0.14469008
2	0xbe74c0a4	-0.23901612
3	0xbf22419b	-0.63381356
4	0xbe08bc13	-0.13352995
5	0x3e4a755a	0.19771329
6	0x3e503cf8	0.20335758
7	0xbe9d4ea8	-0.30724072

stream1.IN.1.running_var f4 [8]
0	0x3e0401a1	0.12891246
1	0x3df20f44	0.11819318
2	0x3dee2148	0.11627442
3	0x3e193fbb	0.14965717
4	0x3de18a6a	0.110127285
5	0x3e045b02	0.12925342
6	0x3de4d86d	0.111740924
7	0x3ded89ad	0.11598525

stream1.IN_both.0.weight f4 [8, 6, 3, 3]
0	0x3d0996f0	0.03359121
1	0x3d56e5cc	0.052465245
2	0xbd3ffe5c	-0.046873435
3	0xbca2a69c	-0.019854836
4	0x3dc4707c	0.09591767
5	0xbd16216a	-0.03665296
6	0x3cbd54e8	0.023111776
7	0xbd579682	-0.05263377
8	0xbda48d54	-0.08034769
9	0x3be5f600	0.007017851
10	0x3d2c20fc	0.042023644
11	0xbd4ed886	-0.05049946
12	0x3dee7da4	0.11645058
13	0xbd118086	-0.03552296
14	0x3e00f446	0.12593183
15	0xbdf88ea5	-0.12136582
16	0xbd3d6bf0	-0.046245515
17	0x3b4fc100	0.003170073
18	0x3df0f8f8	0.11766237
19	0x3dc6f6f6	0.09715073
20	0x3d1b5754	0.03792508
21	0x3d3d0f0c	0.046156928
22	0x3df61610	0.12015927
23	0xbd927515	-0.07151238
24	0xbde13afe	-0.1099758
25	0x3cede268	0.029038623
26	0x3d8dc2d4	0.06921926
27	0xbe00f3b8	-0.12592971
28	0x3d9f6fda	0.07785006
29	0xbd85484e	-0.06507932
30	0xbd8af159	-0.06784315
31	0xbd360c8a	-0.044445552
32	0xbd3afa0a	-0.045648612
33	0x3d910264	0.07080534
34	0x3da4d4ec	0.08048424
35	0x3dd2b984	0.102892905
36	0xbd88e841	-0.06684924
37	0xbddbcfce	-0.10732995
38	0xbdda751c	-0.10666868
39	0x3d706834	0.058693126
40	0x3cd386d0	0.02582112
41	0xbdd1e3e6	-0.10248546
42	0xbdf15fb0	-0.11785829
43	0xbc5f6230	-0.01363425
44	0xbdaad60d	-0.08341608
45	0x3dca1da8	0.09868938
46	0x3dfa6150	0.12225592
47	0xbde11403	-0.10990145
48	0x3e0af6b6	0.13570675
49	0xbd60349a	-0.054737665
50	0xbdd2cda6	-0.102931306
51	0x3d419e98	0.047270387
52	0xbddad42c	-0.10685
53	0x3e0179f2	0.12644175
54	0x3d23c96c	0.039987013
55	0x3dadbd96	0.08483426
56	0xbd892334	-0.066961676
57	0xbd36e30a	-0.044650115
58	0xbdfbe885	-0.12300209
59	0x3d7cc778	0.061713666
60	0x3d0acbd8	0.033885807
61	0x3d0099ec	0.03139679
62	0x3deedbc4	0.11663011
63	0x3d105854	0.035240486
64	0xbd6c206c	-0.057648107
65	0x3c936758	0.017993614
66	0x3b8b0800	0.004242897
67	0x3d6a9704	0.057272926
68	0x3c3d63c0	0.011559427
69	0xbd3c2eb6	-0.045942985
70	0x3dbe7d68	0.09301263
71	0x3db6fd12	0.08934988
72	0x3ce594c0	0.028025031
73	0x3d95ecc2	0.073205486
74	0x3c548d70	0.012973174
75	0xbd89306e	-0.0669869
76	0x3dae2d44	0.085047275
77	0x3dae692e	0.08516155
78	0xbdd4c6dc	-0.10389492
79	0x3e066582	0.1312466
80	0xbdf2f861	-0.11863781
81	0x3cc5e6f0	0.024157971
82	0x3dc4805c	0.09594795
83	0xbdad9448	-0.08475548
84	0x3d9536a8	0.072858155
85	0xbd8fede6	-0.070277974
86	0x3c2e7a20	0.010649234
87	0xbe035360	-0.12824774
88	0xbd5dcfb8	-0.054153174
89	0xbdd45ba1	-0.10369039
90	0x3c8f6358	0.017503425
91	0x3dbb7b3c	0.091543645
92	0xbde371d2	-0.11105694
93	0x3d7cda08	0.06173137
94	0xbd9537fb	-0.07286068
95	0x3d6ff588	0.058583766
96	0xbda99802	-0.08280946
97	0xbdaaa089	-0.08331401
98	0x3e0592ac	0.13044232
99	0xbd201748	-0.039084703
100	0x3d721ab0	0.059107482
101	0x3daa4dea	0.08315642
102	0x3b221100	0.002472937
103	0x3db45230	0.088047385
104	0x3cdcfb40	0.026975274
105	0x3d08442c	0.03326814
106	0xbdd7815c	-0.1052272
107	0xbd298f46	-0.0413964
108	0x3ddfcc5c	0.1092765
109	0x3c0c1df0	0.0085520595
110	0x3d932ebc	0.07186648
111	0x3d96c0f4	0.07361022
112	0xbd2e29fc	-0.04252051
113	0x3d44a464	0.048008338
114	0xbd0b9ec0	-0.034086943
115	0x3d81cf22	0.063383356
116	0xba10e500	-0.0005527288
117	0x3ca31890	0.019909173
118	0xbd4d475a	-0.050116874
119	0x3cb78a28	0.022404745
120	0x3e052400	0.13002014
121	0x3decb3cc	0.11557731
122	0x3dd0b5fe	0.10190962
123	0xbd151d88	-0.036405116
124	0xbe012ed0	-0.12615514
125	0xbdb80825	-0.089859284
126	0xbdc938c3	-0.098252796
127	0x3ddec16e	0.108767375
128	0x3e08ea08	0.13370526
129	0xbbc87940	-0.0061179698
130	0xbddf6113	-0.10907187
131	0x3d4c50bc	0.04988168
132	0xbd539b18	-0.05166158
133	0xbca7d1bc	-0.020485751
134	0xbd0e3b12	-0.034724303
135	0xbd11e9de	-0.035623424
136	0xbd83eee2	-0.06442048
137	0xbc232a30	-0.009958789
138	0xbc85dc98	-0.016340539
139	0xbcb6d2f4	-0.022317387
140	0xbb6eedc0	-0.0036457628
141	0xbcf99ba4	-0.030469723
142	0xbdb5dc7e	-0.08879946
143	0x3d40322c	0.046922848
144	0x3d1b6f7c	0.037948117
145	0xbcabda20	-0.020978034
146	0xbb56c180	-0.0032769144
147	0x3d4111e0	0.047136188
148	0x3df2a8fc	0.118486375
149	0xbd03addc	-0.032148227
150	0xbdebcd1a	-0.115137294
151	0xbca224f4	-0.019793011
152	0x3d6f1108	0.05836585
153	0x3cc0ec20	0.023550093
154	0x3d576fa8	0.052596718
155	0x3bc56d80	0.0060250163
156	0xbde8b46d	-0.113625385
157	0x3c282220	0.010262042
158	0x3d6f2684	0.05838634
159	0x3d1d1b4c	0.03835611
160	0xbd6f0558	-0.058354706
161	0x3d042310	0.03226
162	0x3dd96c10	0.106163144
163	0xbdf81a9c	-0.1211445
164	0xbcd9e8d8	-0.026600286
165	0x3da75d2c	0.08172068
166	0x3df199c8	0.117969096
167	0xbdc5df54	-0.09661737
168	0x3dde77d6	0.10862701
169	0xbd8a533d	-0.06754158
170	0xbd939ec8	-0.072080195
171	0x3cb80ee8	0.022468045
172	0x3e04ef38	0.1298188
173	0x3dbce028	0.09222442
174	0x3d4f892c	0.050667927
175	0x3d8bd334	0.06827393
176	0xbd6681ba	-0.05627606
177	0x3db59e3c	0.088680714
178	0xbd9fd5d2	-0.07804455
179	0x3d19176c	0.037375852
180	0x3de28446	0.110603854
181	0x3bf48020	0.0074615628
182	0x3dd457e0	0.10368323
183	0x3dbc8bb2	0.09206332
184	0xbdb0165a	-0.08598013
185	0xbd98b36a	-0.074560955
186	0x3cdaec90	0.02672413
187	0x3d3b65f8	0.04575154
188	0x3c161e80	0.009162545
189	0xbcf72a58	-0.030171558
190	0xbc579418	-0.013157867
191	0xbd2dbdfe	-0.04241752
192	0xbd69e0a4	-0.057099
193	0xbc8123ac	-0.01576408
194	0xbdf26170	-0.11834991
195	0x3dfae72c	0.12251124
196	0x3dff026c	0.12451634
197	0x3d3af920	0.04564774
198	0x3ddca65e	0.107739195
199	0x3d35f2d4	0.044421032
200	0x3dd095d6	0.10184829
201	0xbdb41ff8	-0.0879516
202	0xbe09ab57	-0.13444267
203	0x3dbd074e	0.09229909
204	0x3d9de8e8	0.07710439
205	0x3c0cdf40	0.008598149
206	0xbd8884d0	-0.06665957
207	0xbd9f91fd	-0.07791517
208	0x3dd7ae24	0.105312616
209	0xbdeec386	-0.11658387
210	0xbd5c21fc	-0.053743348
211	0xbd1d58b4	-0.038414672
212	0xbcd95268	-0.026528552
213	0xbd762c3c	-0.06010078
214	0xbd496b30	-0.049174488
215	0x3da4cc2c	0.08046755
216	0x3da448aa	0.08021672
217	0xbd43b0d0	-0.047776043
218	0xbd7d57e4	-0.061851397
219	0x3d98a2da	0.074529365
220	0x3d348ea4	0.044081345
221	0x3c763620	0.015027553
222	0xbe00905f	-0.12555073
223	0x3dd3479e	0.10316394
224	0x3c66a140	0.014076531
225	0x3d27429c	0.040835008
226	0xbd8a0f43	-0.06741192
227	0xbd30f05c	-0.043197975
228	0x3d95a526	0.0730689
229	0x3d1d9ec8	0.038481504
230	0xbcdf911c	-0.027290873
231	0x3d3af38c	0.04564242
232	0x3d8a5540	0.067545414
233	0xbd0f7c62	-0.03503073
234	0x3d73c424	0.059513226
235	0x3bac8260	0.0052645653
236	0xbde30fc6	-0.11086993
237	0xbd142ef2	-0.036177583
238	0xbe049ece	-0.12951204
239	0x3dcd1dc6	0.100154445
240	0x3daae88e	0.083451375
241	0x3d8fd06a	0.07022174
242	0x3d54d6e8	0.051962763
243	0xbd0cb270	-0.03434986
244	0xbde735d9	-0.112895675
245	0xbca7a248	-0.020463124
246	0x3dec72b8	0.11545318
247	0x3db7eff2	0.08981313
248	0x3d86c5e6	0.06580715
249	0x3d3936cc	0.045218274
250	0x3d8fd734	0.070234686
251	0x3dd50a4e	0.10402356
252	0xbd0ed324	-0.03486933
253	0xbdc44791	-0.09583963
254	0xbe045d54	-0.12926227
255	0xbe0569d1	-0.13028647

stream1.IN_both.0.bias f4 [8]
0	0xbd7718cc	-0.060326383
1	0xbce7d700	-0.028300762
2	0x3c489920	0.012243539
3	0xbd9c671d	-0.07636855
4	0x3d035890	0.03206688
5	0x3d86ddf2	0.065853015
6	0xbd97689c	-0.073929995
7	0x3bad4460	0.005287692

stream1.IN_both.1.weight f4 [8]
0	0x3f800000	1.0
1	0x3f800000	1.0
2	0x3f800000	1.0
3	0x3f800000	1.0
4	0x3f800000	1.0
5	0x3f800000	1.0
6	0x3f800000	1.0
7	0x3f800000	1.0

stream1.IN_both.1.bias f4 [8]
0	0x00000000	0.0
1	0x00000000	0.0
2	0x00000000	0.0
3	0x00000000	0.0
4	0x00000000	0.0
5	0x00000000	0.0
6	0x00000000	0.0
7	0x00000000	0.0

stream1.IN_both.1.running_mean f4 [8]
0	0x00000000	0.0
1	0x00000000	0.0
2	0x00000000	0.0
3	0x00000000	0.0
4	0x00000000	0.0
5	0x00000000	0.0
6	0x00000000	0.0
7	0x00000000	0.0

stream1.IN_both.1.running_var f4 [8]
0	0x3f800000	1.0
1	0x3f800000	1.0
2	0x3f800000	1.0
3	0x3f800000	1.0
4	0x3f800000	1.0
5	0x3f800000	1.0
6	0x3f800000	1.0
7	0x3f800000	1.0

stream1.residual.weight f4 [8, 8, 1, 1]
0	0x3e6b196f	0.22958921
1	0x3ddf6638	0.109081686
2	0xbd8f5962	-0.0699947
3	0x3e1fc9f6	0.15604386
4	0x3c529112	0.01285197
5	0xbe863deb	-0.26219115
6	0x3e445739	0.19173898
7	0xbe99abc0	-0.30013847
8	0x3e34d895	0.17660744
9	0x3e12aba9	0.14323296
10	0xbe37aa4b	-0.17936055
11	0x3df5b971	0.11998261
12	0xbe8aed2a	-0.27134067
13	0xbeabf944	-0.33588612
14	0x3d12279f	0.035682317
15	0x3eac7712	0.33684593
16	0xbeac0032	-0.335939
17	0x3dec678c	0.115431875
18	0x3e6f05e9	0.23342098
19	0x3e189124	0.14899117
20	0xbeb390bf	-0.3507137
21	0x3d1df920	0.038567662
22	0xbd587276	-0.052843533
23	0xbeab7776	-0.3348958
24	0xbe306b66	-0.17228469
25	0xbe07f308	-0.13276303
26	0xbdb24d74	-0.08706179
27	0xbdb4b8c6	-0.08824305
28	0xbe51c83c	-0.2048654
29	0x3c456b72	0.012049543
30	0xbd1238b3	-0.035698604
31	0xbe6b95ae	-0.23006317
32	0xbeb403ab	-0.35159048
33	0x3e31f8f9	0.17380132
34	0x3ea39196	0.3194701
35	0xbeb6781d	-0.35638514
36	0xbb200380	-0.0024416149
37	0x3e916fe3	0.28405675
38	0xbce837ca	-0.028346915
39	0x3e892ef1	0.26793626
40	0xbeb55d52	-0.3542276
41	0x3b53890e	0.0032277736
42	0xbe8b49ca	-0.27204734
43	0x3d824091	0.06359971
44	0xbe1ae2af	-0.15125535
45	0x3deb5f75	0.11492816
46	0x3e49b915	0.1969951
47	0xbe8aa717	-0.27080604
48	0xbe350f99	-0.17681731
49	0x3e2eabe0	0.17057753
50	0xbe3b2d4f	-0.18279003
51	0xbe4312c0	-0.19050121
52	0x3d65dca3	0.05611862
53	0x3e1eed5d	0.15520234
54	0x3e88bc9a	0.26706392
55	0x3da67d81	0.08129407
56	0x3d893ad3	0.06700673
57	0x3e8f4bd7	0.2798755
58	0xbd5130b8	-0.051071852
59	0x3e7ea176	0.2486628
60	0x3e0c02b6	0.13672909
61	0x3e5a6250	0.21326566
62	0xbea7e87b	-0.32794556
63	0x3ea092ac	0.31361902

stream1.residual.bias f4 [8]
0	0x3eb1efc8	0.3475325
1	0x3ea303fb	0.31838974
2	0x3e28b050	0.16473508
3	0xbc6c417f	-0.014419912
4	0xbea50fc4	-0.3223859
5	0xbe912417	-0.28347847
6	0xbe9e6972	-0.30939823
7	0x3c804a04	0.015660293

stream1.block.0.depthwise.weight f4 [8, 1, 3, 3]
0	0xbe701007	-0.23443614
1	0x3c69ad3e	0.014262496
2	0x3d9be0b5	0.07611219
3	0xbe984009	-0.29736355
4	0x3e870136	0.2636811
5	0xba9f78b7	-0.0012166713
6	0xbe9e48f2	-0.30915028
7	0xbe04eba2	-0.12980512
8	0xbce9447c	-0.028475039
9	0x3ea05a8f	0.3131909
10	0x3db347b4	0.08753911
11	0x3d9f64a4	0.077828676
12	0xbe8a596f	-0.27021357
13	0xbddfdb14	-0.10930458
14	0xbde76e6e	-0.1130036
15	0x3e997610	0.29972887
16	0xbe8b99af	-0.2726569
17	0x3b15aa39	0.0022837056
18	0x3d90d50b	0.07071885
19	0xbe058d0a	-0.13042083
20	0x3e841f31	0.25805047
21	0x3e3bf941	0.18356802
22	0xbe5fe554	-0.21864825
23	0xbe96139d	-0.2931184
24	0x3e975ffa	0.29565412
25	0xbdbd8efd	-0.092557885
26	0xbe8bbf07	-0.2729418
27	0x3e10e6c0	0.14150524
28	0xbe93dcc0	-0.28879356
29	0x3e8ebecd	0.27879944
30	0xbe363f01	-0.17797472
31	0x3d9617a8	0.07328731
32	0xbe105a1c	-0.14096874
33	0x3e860365	0.26174465
34	0x3e9754a0	0.2955675
35	0xbe338e76	-0.17534813
36	0xbe84a6a3	-0.25908384
37	0x3e92cb4e	0.28670734
38	0xbe9eb869	-0.3100007
39	0xbd1a91e9	-0.037736807
40	0x3d9e2f4e	0.077238664
41	0xbe8edb9d	-0.27901927
42	0xbeacc2a6	-0.33742255
43	0xbe8492d1	-0.25893262
44	0xbd56b9ce	-0.05242329
45	0xbd89f52c	-0.06736216
46	0x3d2bce0e	0.041944556
47	0xbe2f86cc	-0.17141265
48	0x3ea5da24	0.3239299
49	0x3dedb486	0.11606698
50	0x3e3e356e	0.1857507
51	0x3ea6c386	0.32571048
52	0xbe247a3f	-0.16062258
53	0x3e797b0c	0.24363345
54	0xbea2fe8d	-0.31834832
55	0xbe1ab875	-0.15109427
56	0xbeb1ca56	-0.34724683
57	0x3e61ce8b	0.22051446
58	0xbe97b336	-0.29628915
59	0x3e0bc9ba	0.13651171
60	0xbe8e46bc	-0.2778834
61	0x3e2e4b66	0.1702095
62	0xbe5836e1	-0.21114685
63	0xbe98cb52	-0.2984262
64	0x3e12d152	0.14337662
65	0xbdd730f8	-0.10507387
66	0x3dc38f70	0.09548843
67	0xbe67908e	-0.22613737
68	0x3ca09099	0.0196002
69	0x3eaad170	0.33362913
70	0x3dd6cb30	0.10487974
71	0xbd9b104c	-0.07571468

stream1.block.0.pointwise.weight f4 [8, 8, 1, 1]
0	0x3d70780f	0.058708247
1	0xbea500dd	-0.3222722
2	0xbd392aa3	-0.045206677
3	0x3da44bd1	0.08022273
4	0xbdc66fa9	-0.09689266
5	0x3df2238f	0.118231885
6	0xbd866489	-0.06562144
7	0x3e0b49c2	0.13602355
8	0x3df68a96	0.12038152
9	0xbdaec054	-0.085327774
10	0x3e15bae6	0.14622077
11	0x3e8f7c54	0.28024542
12	0xbe89d547	-0.2692053
13	0x3e84bb4e	0.25924152
14	0xbe424552	-0.18971756
15	0xbe688fb6	-0.22711071
16	0xbda45754	-0.08024469
17	0x3d4301ea	0.047609247
18	0xbe6a9552	-0.22908524
19	0xbe14c940	-0.14529896
20	0x3c9cb7d0	0.019130617
21	0x3e6af36a	0.22944418
22	0x3e4b2e8d	0.19841976
23	0x3db05391	0.08609689
24	0xbd0bc219	-0.034120653
25	0xbe625f78	-0.22106731
26	0x3e66dca0	0.225451
27	0xbc56afe6	-0.013103461
28	0xbca8450b	-0.020540735
29	0x3e42f083	0.1903706
30	0x3e3b19b6	0.18271527
31	0xbe61eaf7	-0.22062288
32	0x3a68d52c	0.0008881863
33	0xbce09b34	-0.027417757
34	0x3b788fad	0.0037927434
35	0xbca4faae	-0.020139065
36	0xbdae9426	-0.08524351
37	0xbe24f81e	-0.16110274
38	0x3ddb5157	0.10708874
39	0xbddd3755	-0.10801569
40	0xbe8c3944	-0.2738744
41	0xbe8aa6b6	-0.27080315
42	0x3e405f43	0.1878634
43	0x3e898a89	0.26863506
44	0xbea0fd04	-0.31443036
45	0xbd84328f	-0.06454956
46	0xbd94f717	-0.07273691
47	0x3cf6a01b	0.030105641
48	0xbe9e7512	-0.30948693
49	0x3e9ed801	0.31024173
50	0xbe0570d1	-0.13031317
51	0x3d73de99	0.059538458
52	0x3e0118ec	0.12607163
53	0x3d3a345a	0.045460083
54	0xbeacef47	-0.33776304
55	0xbe56ef30	-0.2098968
56	0x3e164b49	0.14677157
57	0xbd93b723	-0.07212665
58	0xbe6d6b69	-0.23185505
59	0xbe9a0fd4	-0.300902
60	0xbdab074e	-0.08351003
61	0xbe2eddf6	-0.17076859
62	0xbe21fb37	-0.15818487
63	0x3e06c62d	0.13161536

stream1.block.1.weight f4 [8]
0	0x3f7f5192	0.9973384
1	0x3f81f5bb	1.0153116
2	0x3f7c9281	0.9866105
3	0x3f81d95f	1.0144461
4	0x3f7bf899	0.98426205
5	0x3f7b7ed4	0.982404
6	0x3f7f54e9	0.9973894
7	0x3f821d33	1.0165161

stream1.block.1.bias f4 [8]
0	0x3b468086	0.0030289008
1	0x3c78f390	0.015194789
2	0xbc8349e4	-0.016026445
3	0x3c1a1f00	0.009406805
4	0xbc92e3cd	-0.01793089
5	0xbc7995cc	-0.015233468
6	0x3b23f1d8	0.0025015976
7	0x3c83b881	0.01607919

stream1.block.1.running_mean f4 [8]
0	0x3daee8b8	0.08540481
1	0x3e5d5a9e	0.21616599
2	0x3c5ba2f8	0.013405554
3	0xbb99f27c	-0.004698096
4	0xbd832ff1	-0.064056285
5	0x3e2b4f3b	0.16729443
6	0x3e394517	0.18092762
7	0xbc60f136	-0.013729384

stream1.block.1.running_var f4 [8]
0	0x3df1cfd0	0.11807215
1	0x3e10f57f	0.1415615
2	0x3e086b20	0.13322115
3	0x3e06dc2b	0.13169925
4	0x3df45d50	0.119318604
5	0x3e247dc2	0.16063598
6	0x3e14e397	0.14539944
7	0x3e0a9cf8	0.13536441

stream1.block.3.depthwise.weight f4 [8, 1, 3, 3]
0	0x3e345063	0.1760879
1	0xbe178f4c	-0.14800757
2	0x3d5ff8dc	0.05468069
3	0xbe9b69b2	-0.30354077
4	0x3e4e491c	0.20145077
5	0xbe4d309c	-0.20038074
6	0xbd903b8c	-0.07042608
7	0x3da7b851	0.081894524
8	0xbe547ae5	-0.20750006
9	0xbdc64e8f	-0.096829526
10	0xbd738469	-0.059452448
11	0x3e8e9ad4	0.278525
12	0x3e62c217	0.22144352
13	0xbe06d565	-0.13167341
14	0xbcb19a94	-0.021680154
15	0x3e824a3f	0.2544727
16	0x3ea4f481	0.32217792
17	0x3e8f354e	0.27970356
18	0xbdb7bb0c	-0.08971223
19	0xbe83c76e	-0.2573809
20	0x3e9a9495	0.30191484
21	0x3e7fbab0	0.2497356
22	0x3de83869	0.113388844
23	0xbe3900cf	-0.18066715
24	0xbeae937b	-0.34096894
25	0x3e49ecf0	0.1971929
26	0xbe762160	-0.24036169
27	0x3ea02308	0.31276727
28	0xbe67fa34	-0.22654039
29	0xbd73eb78	-0.059550732
30	0x3e953f28	0.29149747
31	0xbe672f1f	-0.22576569
32	0xbe1de788	-0.15420353
33	0xbea29748	-0.31756043
34	0xbea848e5	-0.32868114
35	0x3d514ca1	0.05109847
36	0x3e5dab5e	0.21647403
37	0xbea32244	-0.3186208
38	0x3e80e23f	0.25172612
39	0xbdf1c981	-0.11806012
40	0xbd9042a4	-0.07043961
41	0xbc41ef2c	-0.011836808
42	0xbea42213	-0.32057247
43	0xbe8c5606	-0.2740938
44	0x3e8e9c10	0.2785344
45	0x3e11c5b8	0.1423558
46	0x3e2064ce	0.15663454
47	0x3e677db9	0.22606553
48	0xbe965875	-0.29364362
49	0xbe725ef1	-0.2366903
50	0x3e950459	0.2910488
51	0xbe7203fe	-0.23634335
52	0xbce4dd4d	-0.027937556
53	0x3d24768f	0.04015213
54	0x3e5c159f	0.21492623
55	0xbdacf0c0	-0.08444357
56	0x3def6d75	0.11690799
57	0x3e3bb382	0.18330196
58	0xbe8bf81b	-0.27337727
59	0x3da5246e	0.08063589
60	0x3e532127	0.20618115
61	0xbd81b6fd	-0.0633373
62	0xbda5331f	-0.08066391
63	0xbe83a685	-0.25712982
64	0xbe38fe98	-0.1806587
65	0xbd410bab	-0.047130268
66	0xbdf77071	-0.12081993
67	0xbe4ff3bf	-0.20307826
68	0x3e2f6f64	0.17132336
69	0x3d17c0c0	0.037049055
70	0x3e95bb92	0.29244667
71	0xbeac7c7a	-0.33688718

stream1.block.3.pointwise.weight f4 [8, 8, 1, 1]
0	0xbdf03352	-0.117285386
1	0x3e2883f9	0.16456594
2	0x3e7e8330	0.24854732
3	0xbe29eb45	-0.16593654
4	0xbe648c85	-0.22319229
5	0xbe85231a	-0.26003343
6	0x3ea23392	0.3167997
7	0xbeb41251	-0.35170224
8	0xbe950b7d	-0.29110327
9	0xbe6be776	-0.23037514
10	0x3bd45dd2	0.006480911
11	0xbe38583a	-0.18002406
12	0x3e1c53c2	0.15266326
13	0x3d80012d	0.06250224
14	0x3eabf713	0.3358694
15	0x3d070cca	0.03297118
16	0xbc317a5f	-0.010832398
17	0xbe2f19ab	-0.17099635
18	0xbe1140a2	-0.14184812
19	0xbc94208e	-0.01808193
20	0xbe97a649	-0.29619053
21	0x3b1b19c0	0.0023666471
22	0xbc297207	-0.010342128
23	0x3df30d4c	0.118677706
24	0xbe4cb471	-0.19990708
25	0x3e9151e3	0.28382787
26	0x3dfb2f17	0.12264841
27	0x3d95c83c	0.07313582
28	0x3e54d6cd	0.20785065
29	0xbe5e8704	-0.21731192
30	0x3e0f47cb	0.1399223
31	0xbe1355bf	-0.14388178
32	0x3e906e31	0.2820907
33	0xbe5b86bb	-0.21438114
34	0xbe48c187	-0.19605075
35	0xbe652e43	-0.22380929
36	0x3d8ddce4	0.06926897
37	0xbe9659a3	-0.29365262
38	0x3e85287a	0.26007444
39	0x3e9fdfed	0.3122553
40	0xbe44c8be	-0.19217202
41	0x3e048629	0.12941803
42	0xbddaadb2	-0.10677661
43	0xbe214d6b	-0.15752189
44	0xbe3195f4	-0.17342359
45	0x3e8da2d2	0.27663285
46	0x3db63227	0.088962846
47	0xbe009fae	-0.12560913
48	0xbde0f881	-0.10984898
49	0xbdd38945	-0.103289165
50	0xbe3651fc	-0.17804712
51	0xbeab220b	-0.3342441
52	0x3ea0a851	0.31378415
53	0xbe4bb87d	-0.19894595
54	0x3d446988	0.047952205
55	0x3da647ca	0.081191614
56	0xbe39a5b3	-0.18129615
57	0x3dbe6140	0.09295893
58	0xbe16676a	-0.14687887
59	0xbdde52d3	-0.10855641
60	0x3e94ee9c	0.29088295
61	0x3df31ef7	0.118711405
62	0xbeb62b38	-0.35579848
63	0x3d972765	0.07380561

stream1.block.4.weight f4 [8]
0	0x3f817ad9	1.0115615
1	0x3f7ca8e5	0.9869521
2	0x3f7c28bf	0.98499674
3	0x3f80d8ae	1.0066125
4	0x3f7c67ed	0.9859608
5	0x3f820441	1.0157548
6	0x3f7bbee3	0.98338145
7	0x3f81dec5	1.0146109

stream1.block.4.bias f4 [8]
0	0xbc91a30b	-0.01777794
1	0xbc763c40	-0.015029013
2	0xbc8e1a36	-0.017346483
3	0xbc8dc3f2	-0.017305348
4	0x3b3630a3	0.0027799986
5	0x3c9d824e	0.019227173
6	0xbc9ed586	-0.019388925
7	0xbabe7162	-0.001452964

stream1.block.4.running_mean f4 [8]
0	0x3e63e837	0.22256552
1	0xbb8a4737	-0.0042199153
2	0xbd14f996	-0.036370836
3	0x3df2a305	0.118475
4	0xbdd028ab	-0.10164007
5	0x3e2de472	0.16981676
6	0x3ba4249f	0.0050092484
7	0x3bdcd835	0.006739641

stream1.block.4.running_var f4 [8]
0	0x3e30f4ba	0.17280856
1	0x3dfcc5c4	0.12342408
2	0x3e088dd1	0.13335349
3	0x3e3aab33	0.1822937
4	0x3e391c61	0.18077232
5	0x3e0a8e56	0.1353086
6	0x3e0d6550	0.13808179
7	0x3e08de8d	0.13366146

stream1.block2.0.depthwise.weight f4 [8, 1, 3, 3]
0	0xbdea0e5a	-0.114285186
1	0xbd823c19	-0.06359119
2	0xbe726d30	-0.23674464
3	0x3e2758a1	0.16342403
4	0x3e70d580	0.23518944
5	0x3e33227a	0.1749362
6	0x3dcb64ce	0.09931336
7	0xbe0642a4	-0.13111359
8	0x3e3496d5	0.17635663
9	0x3b9c5abb	0.004771558
10	0x3e86e893	0.26349315
11	0xbe4eb871	-0.20187546
12	0xbe8d88bd	-0.27643386
13	0x3e13f2c4	0.14448076
14	0xbe8c2db7	-0.27378628
15	0xbe88a3a1	-0.2668734
16	0xbe0c82d4	-0.13721782
17	0x3e47c001	0.19506837
18	0x3e26ea23	0.16300254
19	0x3e026f94	0.12737876
20	0xbe382c83	-0.1798573
21	0x3cc47f71	0.02398655
22	0xbe997fc2	-0.29980284
23	0xbbcfc2a8	-0.0063403435
24	0x3e94785c	0.28998077
25	0x3e5f8b33	0.21830444
26	0xbe371796	-0.17880091
27	0xbdc87a34	-0.097889334
28	0xbc85d064	-0.01633472
29	0xbc9dc019	-0.019256638
30	0xbeab4a86	-0.33455294
31	0xbe238c4f	-0.15971492
32	0xbe76ae58	-0.24089944
33	0x3dec6e8b	0.11544522
34	0x3e97774f	0.29583213
35	0xbe16febc	-0.14745611
36	0x3d8b1b1d	0.06792281
37	0x3e50573e	0.2034578
38	0xbdfe4ca2	-0.1241696
39	0x3e09a1c2	0.13440612
40	0x3e806b2d	0.2508177
41	0x3e1d7f48	0.15380585
42	0x3e93e288	0.28883767
43	0xbe84ff2a	-0.25975925
44	0x3e4364a6	0.19081363
45	0x3e2bcce4	0.16777378
46	0xbe864d40	-0.26230812
47	0x3db8d51f	0.090250246
48	0xbe4b966e	-0.19881603
49	0x3e238dc7	0.15972053
50	0x3e8aec05	0.27133194
51	0x3e9e724f	0.30946586
52	0x3e6999c7	0.22812568
53	0x3eb25f0e	0.34838146
54	0xbeacacaf	-0.33725497
55	0x3e658d30	0.2241714
56	0xbcbfb58b	-0.023401996
57	0x3e0a2abd	0.13492866
58	0x3e848e0f	0.25889632
59	0x3d07114d	0.032975484
60	0xbc5d6398	-0.0135125145
61	0xbcd55c6f	-0.026045052
62	0x3e9cc64c	0.30620039
63	0x3df5f501	0.120096214
64	0x3ea8bdf8	0.32957435
65	0x3ab5a15c	0.0013857293
66	0xbd57169c	-0.052511796
67	0x3ea1989b	0.3156174
68	0x3e5d9568	0.21639025
69	0x3e726489	0.23671164
70	0xbe298fd7	-0.16558777
71	0xbdeef0b0	-0.11667001

stream1.block2.0.pointwise.weight f4 [8, 8, 1, 1]
0	0x3ea95e6e	0.33079857
1	0x3e4dce82	0.20098308
2	0x3e0452be	0.12922189
3	0xbe13eabc	-0.14445013
4	0x3e4c6a80	0.19962502
5	0x3d3f4b35	0.046702582
6	0xbde2d81e	-0.11076377
7	0x3e0c99aa	0.13730493
8	0x3eb7b508	0.35880303
9	0xbe54cbf7	-0.20780931
10	0x3ea17406	0.3153383
11	0xbe95c65d	-0.29252902
12	0xbe010eb5	-0.12603267
13	0x3d264d87	0.04060128
14	0x3e32ac2e	0.17448494
15	0xbe852f0a	-0.2601245
16	0x3d4e697c	0.050393566
17	0xbd956585	-0.07294754
18	0x3e950143	0.29102525
19	0x3e6e9495	0.23298867
20	0xbe050893	-0.12991552
21	0x3e5fa164	0.2183891
22	0xbe8e6905	-0.278145
23	0xbea0c0ab	-0.31396994
24	0xbdca8d7d	-0.09890268
25	0xbdf68f26	-0.12039022
26	0x3e2feb50	0.17179608
27	0xbc9ded7a	-0.019278277
28	0xbe90e16e	-0.2829699
29	0x3df60812	0.12013258
30	0x3e9879e3	0.29780492
31	0xbe0db01a	-0.13836709
32	0x3e45009f	0.19238518
33	0x3eb00820	0.343812
34	0xbe1691e7	-0.14704095
35	0xbcfaef97	-0.030631823
36	0x3e75cb97	0.24003445
37	0xbe08445d	-0.13307329
38	0xbddca62e	-0.10773884
39	0xbe44965a	-0.1919798
40	0x3eb55cf6	0.35422486
41	0xbdda2962	-0.106524244
42	0xbe9e3a27	-0.30903742
43	0xbea41fdc	-0.32055557
44	0xbea2220b	-0.31666598
45	0x3d8f2c99	0.06990928
46	0xbe55c138	-0.20874488
47	0x3ce35c1d	0.027753884
48	0xbde985af	-0.11402451
49	0xbe99c684	-0.30034268
50	0xbdce7d5e	-0.10082506
51	0xbe374915	-0.17898972
52	0xbd5ee57f	-0.054418083
53	0x3e6f5c5d	0.23375078
54	0xbdb70fcf	-0.08938562
55	0x3de2a6de	0.11066984
56	0x3e82060a	0.25395232
57	0xbce59d2f	-0.028029053
58	0x3dd32c39	0.10311169
59	0xbdf14e6e	-0.117825374
60	0xbd2e5d4c	-0.042569444
61	0x3e7a7ed4	0.24462444
62	0x3e80e54c	0.2517494
63	0xbdf58632	-0.11988486

stream1.block2.1.weight f4 [8]
0	0x3f8173ee	1.0113504
1	0x3f81a39b	1.0128053
2	0x3f7c30d8	0.9851203
3	0x3f7c882c	0.9864528
4	0x3f7ebe7c	0.99509406
5	0x3f820906	1.0159004
6	0x3f7c176c	0.9847324
7	0x3f7b8fda	0.98266375

stream1.block2.1.bias f4 [8]
0	0x3adb431e	0.0016728377
1	0x3b9d83f8	0.0048069917
2	0xbc461b70	-0.012091503
3	0xbc90b95a	-0.017666508
4	0xbb6c7391	-0.0036079625
5	0x3c420f24	0.01184443
6	0xbc5dfcba	-0.013549024
7	0xbc8abca9	-0.016935663

stream1.block2.1.running_mean f4 [8]
0	0x3e4deab8	0.2010907
1	0x3d781ec2	0.060576208
2	0xbe95108a	-0.2911418
3	0xbd894642	-0.06702854
4	0xbe83892d	-0.25690594
5	0x3d54876e	0.05188697
6	0x3e87350c	0.2640766
7	0x3e00910c	0.12555331

stream1.block2.1.running_var f4 [8]
0	0x3e39606d	0.1810319
1	0x3e7a3f59	0.24438228
2	0x3e52e7ec	0.20596284
3	0x3e1cefca	0.15325847
4	0x3e31e880	0.17373848
5	0x3ea636e8	0.32463765
6	0x3e7649f4	0.24051648
7	0x3e9a1052	0.30090576

stream2.IN.0.weight f4 [8, 3, 3, 3]
0	0x3e1ea336	0.15491948
1	0x3e1356b6	0.14388546
2	0xbe1a6e53	-0.15081148
3	0xbd63e04b	-0.055633824
4	0x3e53d621	0.20687152
5	0x3dc26059	0.09491033
6	0xbd3ad337	-0.045611586
7	0xbcceed75	-0.025259713
8	0x3d9be94f	0.076128595
9	0xbcb12685	-0.021624813
10	0x3e0cc1cc	0.13745803
11	0xbdfcb5f2	-0.12339391
12	0xbde90181	-0.1137724
13	0x3df12f1b	0.11776563
14	0x3d25e010	0.040496886
15	0xbe17f439	-0.14839257
16	0x3d43f09b	0.04783688
17	0x3d31bb44	0.04339148
18	0xbd13a786	-0.036048435
19	0x3dc5b185	0.09653
20	0x3dbfecd7	0.093713455
21	0x3dd3eb9b	0.103476726
22	0xbdb911d3	-0.09036603
23	0x3d6503d4	0.055911854
24	0xbe1d26bb	-0.15346806
25	0xbd382b7d	-0.04496335
26	0x3c74eda2	0.014949234
27	0xbc88df8f	-0.016708164
28	0xbdf6d4cd	-0.12052307
29	0xbd0aca5c	-0.03388439
30	0xbe00dcc7	-0.1258422
31	0x3dff1e13	0.12456908
32	0xbd8a9d99	-0.067683406
33	0x3deecc2f	0.11660039
34	0x3dbe74b1	0.09299601
35	0xbdaa9ca5	-0.08330659
36	0x3ce05a63	0.02738685
37	0x3da187a7	0.07887202
38	0xbe0b4eab	-0.13604228
39	0xbe066be0	-0.13127089
40	0xbe259f66	-0.16174087
41	0xbe1b6483	-0.15175061
42	0xbd618141	-0.055054907
43	0xbd3ca113	-0.04605205
44	0x3dc4fbcf	0.09618341
45	0xbe33301f	-0.17498825
46	0xbdf5fe96	-0.12011449
47	0x3d85eaef	0.06538951
48	0xbd6bca61	-0.05756605
49	0x3e273c60	0.16331625
50	0x3da99648	0.08280617
51	0x3e063eb0	0.13109851
52	0x3d81c2de	0.06335996
53	0x3e16002b	0.14648502
54	0xbba47dc0	-0.0050198734
55	0x3e0882fe	0.1333122
56	0x3dc7f493	0.09763446
57	0xbe457861	-0.19284202
58	0x3e1d0ee1	0.15337707
59	0x3e15b6e4	0.14620548
60	0xbda5f2de	-0.08102964
61	0xbc789009	-0.015171059
62	0x3dc40a5c	0.095722884
63	0x3c566ae2	0.013087006
64	0x3e11dc1f	0.14244126
65	0x3dc987a0	0.098403215
66	0x3e09119d	0.13385625
67	0xbdfd7493	-0.123757504
68	0xbe10e9b2	-0.14151648
69	0xbdcbb051	-0.09945739
70	0x3de8e9b3	0.113726996
71	0xbd160931	-0.03662986
72	0xbd28ff36	-0.041259013
73	0xbdca33d0	-0.09873164
74	0xbdae388a	-0.08506878
75	0xbe1f745d	-0.15571733
76	0xbd971f0e	-0.0737897
77	0xbaaaa8d7	-0.0013020289
78	0x3dff289d	0.12458918
79	0xbe5026e8	-0.20327342
80	0xbcba94b3	-0.022775983
81	0xbe1c0dec	-0.15239686
82	0x3e2ac12d	0.16675253
83	0x3dd5762d	0.10422931
84	0x3e0f9801	0.14022829
85	0xbe479554	-0.19490558
86	0x3d95e743	0.073195
87	0x3e0f16e7	0.1397358
88	0x3d086c66	0.0333065
89	0xbda6f7c5	-0.08152727
90	0xbd4159ed	-0.0472049
91	0x3e4fb5a8	0.2028414
92	0x3d6f2096	0.058380686
93	0xbdba198a	-0.090869024
94	0xbddbc9e8	-0.1073187
95	0xbe04010f	-0.12891029
96	0xbe0603c2	-0.13087371
97	0xbe21feaf	-0.1581981
98	0xbd47f181	-0.0488143
99	0x3d3b875a	0.04578338
100	0x3de24b68	0.11049539
101	0xbe3a1193	-0.18170767
102	0xbddb7371	-0.10715378
103	0xbd8cc781	-0.0687399
104	0x3da2f791	0.07957376
105	0xbe53692f	-0.20645593
106	0xbe277d2d	-0.16356345
107	0x3e2a0486	0.16603288
108	0xbd811d16	-0.06304376
109	0x3d824e01	0.06362534
110	0xb9c84a39	-0.00038202273
111	0x3c5d26ed	0.01349805
112	0x3dd65346	0.10465102
113	0xbddb106f	-0.10696494
114	0xbdb2c645	-0.08729223
115	0xbe26048c	-0.16212672
116	0xbe3c3e18	-0.18383062
117	0xbd8687cc	-0.0656887
118	0xbdda102a	-0.10647614
119	0xbe00032d	-0.12501211
120	0x3b8d50e7	0.004312623
121	0xbdec405e	-0.115357146
122	0xbe0337ff	-0.1281433
123	0xbbba8e57	-0.0056932378
124	0x3cb9b483	0.022669083
125	0x3d74addb	0.059736114
126	0xbd3232d1	-0.043505494
127	0x3d1280c7	0.035767343
128	0xbd50ac0c	-0.050945327
129	0xbd9ef62b	-0.077617966
130	0xbc971d40	-0.018446565
131	0xbc82d3da	-0.01597016
132	0xbe510bbe	-0.20414636
133	0x3d98836a	0.0744694
134	0x3e131d37	0.14366613
135	0x3d8c6975	0.06856052
136	0x3dbf719d	0.09347842
137	0xbb7b1fa3	-0.0038318418
138	0xbd9c979c	-0.07646105
139	0x3d04f120	0.032456517
140	0x3de1d617	0.110271625
141	0x3de7d080	0.11319065
142	0xbd1e1ffc	-0.03860472
143	0xbdf2afa0	-0.11849904
144	0xbdbbf9ef	-0.091785304
145	0xbbfe9ee1	-0.0077704047
146	0x3dc85869	0.09782488
147	0x3e2681c4	0.16260439
148	0xbe1a0eb4	-0.15044671
149	0xbdbe6df8	-0.092983186
150	0xbca1115f	-0.019661603
151	0x3dd6762d	0.10471759
152	0x3dd3129c	0.10306284
153	0xbe074332	-0.13209227
154	0xbdd87db3	-0.1057085
155	0x3ce7240e	0.028215434
156	0x3e22b9d3	0.15891199
157	0x3d970720	0.07374406
158	0x3d584838	0.05280325
159	0xbd2f8488	-0.042851
160	0x3db106f6	0.08643906
161	0xbe45b65e	-0.19307849
162	0x3d9a723f	0.07541322
163	0x3d64e08b	0.055878203
164	0xbc8cd489	-0.017191188
165	0xbdd9805b	-0.10620185
166	0x3e452ff9	0.19256581
167	0xbd7f7ca2	-0.06237472
168	0xbe31e358	-0.17371881
169	0xbdbf0b1e	-0.09328292
170	0x3e2ec7a8	0.1706835
171	0xbdf4208f	-0.119202726
172	0x3bfdcdd2	0.007745483
173	0x3d1f8816	0.03894814
174	0x3e4593c8	0.19294655
175	0x3da1aa3a	0.07893796
176	0xbd5da58c	-0.054112956
177	0xbdf86425	-0.12128476
178	0xbe3ebe0f	-0.18627189
179	0xbc314be1	-0.010821314
180	0x3d9ab1c3	0.075534366
181	0x3da8942c	0.082313865
182	0x3cc0d700	0.02354002
183	0xbd99fb95	-0.075186886
184	0x3cb494cc	0.022043608
185	0xbcee3b7a	-0.029081095
186	0xbe0a32c6	-0.13495931
187	0xbe1f4eef	-0.15557455
188	0xbdc9b50a	-0.098489836
189	0xbe158904	-0.14603049
190	0xbd9cf01c	-0.07662985
191	0x3dc108fa	0.0942554
192	0x3df317bd	0.11869762
193	0x3d4d1f2e	0.050078563
194	0x3d5e3b6a	0.05425588
195	0xbc89e1f2	-0.016831372
196	0xbe2ee7c1	-0.17080595
197	0xbe1bb190	-0.15204453
198	0xbdcbaa06	-0.09944539
199	0x3dadc4d4	0.084848076
200	0xbce1bd50	-0.027556092
201	0x3dbe16a8	0.09281665
202	0xbe1dbe66	-0.15404662
203	0x3e24ca7d	0.16092868
204	0x3d4230cc	0.047409818
205	0x3e3b46e8	0.18288767
206	0xbdb686e0	-0.08912444
207	0x3d83a038	0.06427044
208	0x3ade96a7	0.0016982154
209	0x3d5f6e7f	0.054548737
210	0x3ad1fc9c	0.0016020718
211	0xbe3a88be	-0.18216226
212	0xbe3b9ae0	-0.18320799
213	0x3e42074a	0.18948093
214	0xbdd0fb94	-0.10204235
215	0x3e378515	0.1792186

stream2.IN.0.bias f4 [8]
0	0xbe287de7	-0.16454278
1	0x3e156b25	0.14591654
2	0x3e3f4541	0.18678762
3	0xbe1667ef	-0.14688085
4	0x3e43e725	0.19131143
5	0xbe3fb84d	-0.18722649
6	0x3d012f7e	0.031539433
7	0x3e022733	0.12710266

stream2.IN.1.weight f4 [8]
0	0x3f825a64	1.0183835
1	0x3f7bab7d	0.98308545
2	0x3f7dd2a1	0.9914952
3	0x3f818ef5	1.0121752
4	0x3f829075	1.0200335
5	0x3f8194c6	1.0123527
6	0x3f8149c3	1.0100635
7	0x3f7f7a3b	0.99795884

stream2.IN.1.bias f4 [8]
0	0x3c937f47	0.018005027
1	0xbc78fb23	-0.015196594
2	0x3c907ba4	0.017637081
3	0x3c27808a	0.010223517
4	0x3c9f89fc	0.019474976
5	0x3c31ac35	0.01084428
6	0x3c8c97ce	0.01716223
7	0x3c5468f4	0.012964476

stream2.IN.1.running_mean f4 [8]
0	0x3d2e7dd6	0.042600475
1	0x3daabdc2	0.08336975
2	0x3e51c2ea	0.2048451
3	0xbde69aa5	-0.11259965
4	0xbdf1d89d	-0.11808894
5	0xbdd2ca82	-0.102925315
6	0xbcd97d19	-0.026548909
7	0x3d09071d	0.03345405

stream2.IN.1.running_var f4 [8]
0	0x3df659bf	0.120288365
1	0x3e0872a4	0.13324982
2	0x3e1101e0	0.14160872
3	0x3dfe4a42	0.12416507
4	0x3e105881	0.14096262
5	0x3de74ddb	0.112941466
6	0x3def697a	0.1169004
7	0x3de91f51	0.11382926

stream2.IN_both.0.weight f4 [8, 6, 3, 3]
0	0xbc9b92d4	-0.018990912
1	0x3db285fe	0.08716963
2	0x3dff180c	0.124557585
3	0xbcbf5b14	-0.02335886
4	0x3d2022e8	0.03909579
5	0xbbfb4be0	-0.007668957
6	0x3d838b56	0.064230606
7	0xbc244f50	-0.010028675
8	0x3dfec360	0.124396086
9	0x3d379240	0.04481721
10	0xbdd6a73a	-0.10481115
11	0x3de04292	0.10950197
12	0x3cca6ee8	0.024711087
13	0xbd810a94	-0.06300846
14	0x3daa39f8	0.08311838
15	0xbb569100	-0.0032740235
16	0xbdf55ae2	-0.11980225
17	0xbc00bc00	-0.007857323
18	0xbd86cabd	-0.06581638
19	0xbdf8ee58	-0.121548355
20	0x3e07f8b2	0.13278463
21	0x3e048358	0.12940729
22	0xbd5e6cd2	-0.054302998
23	0x3d650374	0.055911496
24	0xbd2cc8d2	-0.042183705
25	0xbddd4f18	-0.108061016
26	0x3b8910a0	0.00418289
27	0xbc871ed8	-0.0164942
28	0xbcd945cc	-0.02652254
29	0xbde50b84	-0.11183837
30	0xbd84dd65	-0.0648754
31	0xbe06d329	-0.13166489
32	0xbce3b1a8	-0.027794674
33	0x3dbf6dd4	0.0934712
34	0x3d9af212	0.075657025
35	0xbdc56a7e	-0.096394524
36	0xbd3f341a	-0.046680547
37	0x3e01fd6e	0.12694332
38	0x3db4cd6a	0.08828242
39	0xbcd8d9d0	-0.026471049
40	0xbcee75c8	-0.029108897
41	0xbdd3b620	-0.10337472
42	0x3da33538	0.07969135
43	0x3db5c7c0	0.0887599
44	0xbcf792a4	-0.03022129
45	0xbdf273fd	-0.11838529
46	0xbd844950	-0.06459296
47	0xbab58500	-0.0013848841
48	0xbd83ea5c	-0.06441185
49	0xbdb697ac	-0.08915648
50	0x3e047e2e	0.12938759
51	0xbde7dd92	-0.11321558
52	0xbdd764a0	-0.105172396
53	0x3e09b9d6	0.13449797
54	0xbc58dec8	-0.013236709
55	0x3df5d414	0.12003341
56	0x3d5239ac	0.05132453
57	0x3dc83112	0.097749844
58	0x3d72b34c	0.059253022
59	0xbc8e7d4c	-0.01739373
60	0x3d917776	0.071028635
61	0xbd08a522	-0.033360608
62	0x3dda25ea	0.10651763
63	0x3d2841e4	0.041078463
64	0xbcb86930	-0.022511095
65	0x3dd8e868	0.10591203
66	0xbc0329b0	-0.008005545
67	0xbdf88110	-0.12133992
68	0xbca1409c	-0.019684128
69	0x3e009a1a	0.12558785
70	0x3d2aa2d4	0.04165919
71	0xbc101db0	-0.008796141
72	0xbd0bb7dc	-0.03411089
73	0xbda0a9cd	-0.07844887
74	0xbda346be	-0.079724774
75	0xbd465740	-0.04842305
76	0xbda17278	-0.07883161
77	0x3dff30a8	0.12460452
78	0x3d75f98c	0.06005244
79	0xbd4e4fcc	-0.05036907
80	0x3d645490	0.055744708
81	0xbd66bea4	-0.056334153
82	0x3d38b828	0.0450975
83	0x3e03cbba	0.12870684
84	0x3d9f384c	0.0777441
85	0x3def2a58	0.11677998
86	0x3d6ed360	0.05830705
87	0xbdaeb99e	-0.085314974
88	0x3dd21d7a	0.102595285
89	0x3df0fcac	0.11766943
90	0x3ba52760	0.0050400943
91	0xbbe83c00	-0.0070872307
92	0xbcbaf4fc	-0.022821896
93	0x3ca4f698	0.020137116
94	0xbda191ee	-0.07889162
95	0x3ddf258a	0.10895832
96	0xbdad7b22	-0.08470751
97	0xbda2a279	-0.079411454
98	0x3db5f62c	0.08884844
99	0xbcf384d8	-0.02972643
100	0x3ddfe2fe	0.10931967
101	0x3db9453a	0.09046407
102	0x3c1c4990	0.009539023
103	0xbd58d100	-0.052933693
104	0xbe08c2c2	-0.13355544
105	0x3d33a754	0.04386075
106	0x3ddbf726	0.10740499
107	0x3db6da8c	0.08928403
108	0xbdeddc9a	-0.11614342
109	0x3d38116c	0.04493849
110	0xbd1e7a6c	-0.03869097
111	0x3b9ee620	0.0048492104
112	0xbd8ec403	-0.0697098
113	0xbcc376e4	-0.023860402
114	0x3d4a15f0	0.049337327
115	0x3e066854	0.13125736
116	0xbd0ffb72	-0.035151906
117	0x3dcb9b74	0.0994176
118	0xbda39995	-0.07988278
119	0x3da35c8c	0.07976636
120	0x3de373a6	0.111060426
121	0xbdffaf7b	-0.12484642
122	0x3c045030	0.008075759
123	0xbd9f6832	-0.077835456
124	0xbde429e8	-0.111408055
125	0xbd526a2c	-0.051370785
126	0x3de89d9e	0.11358188
127	0xbd22cdf8	-0.03974721
128	0xbd8b7d2c	-0.06810984
129	0xbdfc664d	-0.123242
130	0x3d90796c	0.070544094
131	0x3d22b2d0	0.03972131
132	0xbd442eac	-0.047896072
133	0x3d1d4c8c	0.03840308
134	0xbdfb7534	-0.12278214
135	0x3d7a5798	0.061118692
136	0x3e006db2	0.12541845
137	0xbd251200	-0.04030037
138	0xbdb6e93b	-0.08931204
139	0x3e0383ec	0.12843293
140	0x3d8ad90e	0.06779681
141	0x3c9f9ba8	0.019483402
142	0x3cb20360	0.021730125
143	0x3cfd1a98	0.03089647
144	0x3e0452d6	0.12922224
145	0x3dc1cade	0.09462522
146	0x3db7ef08	0.089811385
147	0x3dd17e60	0.10229182
148	0x3c5b36e0	0.013379782
149	0x3c5e6b00	0.0135753155
150	0xbd989dc3	-0.07451966
151	0x3dceb9fc	0.100940675
152	0xbdbfecf4	-0.09371367
153	0x3d9faf14	0.077970654
154	0xbd330fb0	-0.043716133
155	0xbdb0dff8	-0.08636469
156	0x3d972d40	0.07381678
157	0x3d0fb2fc	0.035082802
158	0xbdd8c379	-0.105841585
159	0x3daa461e	0.08314155
160	0xbda99e49	-0.082821436
161	0x3e08ef48	0.13372529
162	0x3d2bcc3c	0.04194282
163	0xbd2c2e14	-0.04203613
164	0x3b8b9920	0.0042601973
165	0x3da05466	0.07828598
166	0x3cfdc730	0.030978769
167	0xbdd37e74	-0.103268534
168	0x3d108ed0	0.035292447
169	0xbddbff90	-0.10742104
170	0xbbdae0a0	-0.0066796094
171	0xbb20e680	-0.0024551451
172	0x3dbab8f6	0.0911731
173	0xbdc54a9a	-0.0963337
174	0xbde16768	-0.11006051
175	0x3dc85d78	0.09783453
176	0xbdda4216	-0.10657136
177	0x3dfb5af4	0.12273207
178	0xbdcb98d2	-0.099412575
179	0xbe04f663	-0.12984614
180	0x3d7077f0	0.05870813
181	0xbde269cb	-0.11055335
182	0x3dd43794	0.10362163
183	0x3dd8d6ca	0.10587843
184	0x3e0277f8	0.12741077
185	0x3c2f3570	0.010693893
186	0xbde0d107	-0.10977369
187	0x3d3c4204	0.045961395
188	0x3e056696	0.13027415
189	0x3de373f6	0.11106102
190	0x3c98d730	0.018657297
191	0x3ddd5266	0.10806732
192	0x3dd69ec2	0.104794994
193	0xbddbe920	-0.107378244
194	0x3d4af960	0.04955423
195	0x3cdb61a0	0.02677995
196	0x3dccd4a4	0.100014955
197	0xbd76fa92	-0.060297556
198	0xbde5fcb8	-0.11229843
199	0x3d8797ca	0.06620748
200	0xbd59304e	-0.053024583
201	0x3db47d3a	0.088129476
202	0x3d63b7e0	0.05559528
203	0x3e03d960	0.1287589
204	0x3dfe14dc	0.12406322
205	0xbd441560	-0.047871947
206	0xbb8818a0	-0.004153326
207	0x3da21410	0.07913983
208	0x3e07ecc6	0.13273916
209	0xbd8a35f2	-0.067485705
210	0xbc0778c0	-0.008268535
211	0x3d3725fc	0.04471396
212	0x3d8aaa88	0.067708075
213	0xbbe556a0	-0.006998852
214	0xbd8b079b	-0.0678856
215	0x3e09561c	0.13411754
216	0xbd27b920	-0.040948033
217	0x3b9d3fc0	0.0047988594
218	0x3d5f36c4	0.054495588
219	0x3b8b2c40	0.0042472184
220	0xbdafa602	-0.08576585
221	0x3e06ad90	0.13152146
222	0x3da8feb4	0.08251706
223	0x3e02c4e8	0.12770426
224	0x3d6221cc	0.055208012
225	0xbd646da0	-0.05576861
226	0xbc5a3d68	-0.013320304
227	0xbdb968b3	-0.09053173
228	0x3c9c87b8	0.019107684
229	0xbd679482	-0.056538112
230	0xbdffd6dc	-0.12492153
231	0xbd09a71c	-0.033606634
232	0x3d1b5254	0.03792031
233	0x3e0740dc	0.13208336
234	0xbc9c22d8	-0.019059584
235	0xbde1a867	-0.11018448
236	0x3dcd96f6	0.10038559
237	0xbd123154	-0.035691574
238	0x3df51a1c	0.119678706
239	0x3e005a72	0.12534502
240	0x3de49cf4	0.11162749
241	0xbe01f78d	-0.1269209
242	0x3e036c5e	0.12834308
243	0xbe06c687	-0.1316167
244	0xbd4d8dd8	-0.0501841
245	0x3d9d366c	0.07676396
246	0xbd0d5c94	-0.034512118
247	0xbd0711a0	-0.032975793
248	0x3d8a05d0	0.0673939
249	0x3df7c834	0.120987326
250	0xbced9aec	-0.029004537
251	0x3db32662	0.08747555
252	0x3c598580	0.013276458
253	0xbc41e7c8	-0.011835046
254	0xbacc2600	-0.001557529
255	0xbda6b9c8	-0.08140904

stream2.IN_both.0.bias f4 [8]
0	0xbd8c4120	-0.06848359
1	0xbe07897c	-0.1323604
2	0xbd868f54	-0.065703064
3	0x3c0fefb0	0.008785173
4	0x3dc72268	0.09723359
5	0xbc865368	-0.016397193
6	0x3dcca714	0.09992805
7	0xbdd765ba	-0.1051745

stream2.IN_both.1.weight f4 [8]
0	0x3f800000	1.0
1	0x3f800000	1.0
2	0x3f800000	1.0
3	0x3f800000	1.0
4	0x3f800000	1.0
5	0x3f800000	1.0
6	0x3f800000	1.0
7	0x3f800000	1.0

stream2.IN_both.1.bias f4 [8]
0	0x00000000	0.0
1	0x00000000	0.0
2	0x00000000	0.0
3	0x00000000	0.0
4	0x00000000	0.0
5	0x00000000	0.0
6	0x00000000	0.0
7	0x00000000	0.0

stream2.IN_both.1.running_mean f4 [8]
0	0x00000000	0.0
1	0x00000000	0.0
2	0x00000000	0.0
3	0x00000000	0.0
4	0x00000000	0.0
5	0x00000000	0.0
6	0x00000000	0.0
7	0x00000000	0.0

stream2.IN_both.1.running_var f4 [8]
0	0x3f800000	1.0
1	0x3f800000	1.0
2	0x3f800000	1.0
3	0x3f800000	1.0
4	0x3f800000	1.0
5	0x3f800000	1.0
6	0x3f800000	1.0
7	0x3f800000	1.0

stream2.residual.weight f4 [8, 8, 1, 1]
0	0xbdddaba3	-0.10823753
1	0xbd5f7948	-0.054559022
2	0xbc1fa113	-0.009742993
3	0xbd624413	-0.055240702
4	0x3d637167	0.05552807
5	0x3ea626ab	0.32451376
6	0xbe813e08	-0.2524264
7	0xbd846fb8	-0.06466621
8	0x3ea08add	0.31355944
9	0xbd6f6961	-0.058450107
10	0xbd9bd5ce	-0.076091394
11	0x3e29aaf1	0.16569115
12	0xbc88b902	-0.016689781
13	0x3dc2efbd	0.09518383
14	0x3d1a1510	0.037617743
15	0x3e46a566	0.19399032
16	0xbeb3d177	-0.35120746
17	0xbbccc651	-0.006249227
18	0x3e5e264f	0.21694301
19	0x3e83eddb	0.25767407
20	0xbc2872ad	-0.010281247
21	0xbeb017f0	-0.34393263
22	0x3d886385	0.06659607
23	0xbe917bf6	-0.28414887
24	0xbe900517	-0.28128883
25	0x3e8b6674	0.27226603
26	0x3dea024d	0.1142622
27	0x3dcdc54f	0.10047399
28	0xbced0ad3	-0.028935825
29	0x3e44e0c1	0.19226362
30	0xbe5ad0fc	-0.21368784
31	0x3e4ce323	0.20008521
32	0xbe1f6249	-0.15564837
33	0xbdc8e888	-0.09809977
34	0xbda9cee2	-0.08291413
35	0xbdf07c7e	-0.11742495
36	0x3d8494e0	0.06473708
37	0xbe88cba3	-0.26717862
38	0x3e9591d8	0.29212832
39	0x3d9b7170	0.07589996
40	0xbde882f7	-0.113531046
41	0x3ead5770	0.33855772
42	0xbe047e97	-0.12938915
43	0xbea90d65	-0.33018032
44	0xbe1d378f	-0.15353225
45	0x3e3f7c96	0.1869987
46	0xbe9f9c5d	-0.31173983
47	0xbcb42f13	-0.021995103
48	0xbe4975e0	-0.19673872
49	0xbe90143c	-0.28140438
50	0x3e83a12e	0.25708908
51	0xbe9665c7	-0.29374525
52	0xbd5e6d17	-0.054303255
53	0xbe98e6ac	-0.2986349
54	0xbe8ee99e	-0.2791261
55	0xbe59ce16	-0.21270022
56	0xbc0c635a	-0.008568609
57	0x3e004d40	0.12529469
58	0x3eb97c77	0.36227772
59	0x3e8d5d99	0.27610472
60	0xbe69edbe	-0.22844598
61	0x3e803b03	0.25045022
62	0xbd134e11	-0.03596312
63	0xbd5ae841	-0.05344415

stream2.residual.bias f4 [8]
0	0x3e9b1f63	0.30297384
1	0x3d70a205	0.058748264
2	0xbd6001f9	-0.05468938
3	0x3e46310d	0.19354649
4	0x3e68d3bd	0.22737022
5	0xbe4d40c5	-0.20044239
6	0xbea06e91	-0.31334355
7	0x3bc52e86	0.006017509

stream2.block.0.depthwise.weight f4 [8, 1, 3, 3]
0	0x3dc0f88e	0.09422408
1	0xbd99ad42	-0.075037494
2	0x3cf65f3e	0.030074712
3	0x3dd2d7e1	0.10295082
4	0x3bfe3e95	0.007758925
5	0x3e24764a	0.16060749
6	0xbd57a858	-0.05265078
7	0x3dddc0ef	0.10827815
8	0x3d06ec3a	0.032940127
9	0x3e6dd159	0.23224391
10	0x3de30bf9	0.11086268
11	0x3ea05115	0.3131186
12	0x3e27edcc	0.16399306
13	0x3d7938cc	0.06084518
14	0xbe7f5087	-0.24933062
15	0xbea41a52	-0.3205133
16	0x3daeb335	0.08530275
17	0x3d3de8ab	0.046364468
18	0x3c0e498a	0.008684525
19	0xbe887b48	-0.26656556
20	0xbe7abb70	-0.24485564
21	0x3dc3f47a	0.095681146
22	0xbe91b76f	-0.2846026
23	0x3e2d4b0d	0.16923161
24	0xbe03cff5	-0.12872298
25	0x3e1b5fbd	0.1517324
26	0xbdc5d75b	-0.096602164
27	0x3e9a50b2	0.3013969
28	0x3c8ddcb8	0.017317161
29	0x3d55c2f7	0.052187886
30	0x3ea1b7ba	0.31585485
31	0xbe093c36	-0.13401875
32	0xbe200be2	-0.15629533
33	0xbe21019d	-0.15723272
34	0x3e1140c8	0.14184868
35	0x3e3a80e1	0.18213226
36	0xbe6a0cbc	-0.2285642
37	0xbe31337f	-0.173048
38	0x3e0267f6	0.1273497
39	0x3de95a60	0.11394191
40	0xbe993e0c	-0.2993015
41	0xbe826630	-0.25468588
42	0x3e9a2c6a	0.3011201
43	0xbda813df	-0.08206915
44	0x3e007830	0.12545848
45	0x3e8c7b7e	0.27437967
46	0x3e3dc795	0.18533166
47	0xbe9a6e4d	-0.30162278
48	0x3e67a41e	0.226212
49	0xbe95af56	-0.29235333
50	0xbe918c68	-0.28427434
51	0xbe9ba076	-0.3039586
52	0x3e2a31a7	0.16620503
53	0x3e6727f9	0.22573842
54	0x3e3c537a	0.18391219
55	0xbcddd873	-0.02708075
56	0x3d289341	0.041156057
57	0xbea92035	-0.33032385
58	0xbe86242b	-0.2619947
59	0xbe8c2d77	-0.27378437
60	0x3e840978	0.25788474
61	0x3e955b73	0.29171333
62	0x3e4ebf67	0.20190202
63	0x3e1abbd1	0.15110709
64	0xbd28121e	-0.041032903
65	0xbe388510	-0.1801951
66	0x3c0b1b2b	0.008490364
67	0xbe1b1e34	-0.1514824
68	0xbe1b9a4e	-0.15195581
69	0xbe7b8231	-0.24561383
70	0x3e814408	0.25247216
71	0x3db27931	0.08714522

stream2.block.0.pointwise.weight f4 [8, 8, 1, 1]
0	0x3d9b38d6	0.075792
1	0xbe345ef9	-0.17614354
2	0x3e61d03c	0.22052091
3	0xbd779680	-0.060446262
4	0xbe80adda	-0.25132638
5	0xbd1a4326	-0.037661694
6	0xbe51911c	-0.20465511
7	0xbe67d637	-0.2264031
8	0x3db6a260	0.08917689
9	0xbdbc5818	-0.0919649
10	0x3e76a7fd	0.2408752
11	0x3e344963	0.1760612
12	0xbc6fdad5	-0.014639576
13	0xbda873d7	-0.0822522
14	0xbe4d9c98	-0.20079267
15	0x3e56e4ee	0.20985767
16	0x3eab27ec	0.33428895
17	0xbcbd8fad	-0.023139799
18	0x3bf47b33	0.0074609756
19	0x3e52c03a	0.20581141
20	0x3e83700e	0.25671428
21	0xbe0e64f4	-0.13905698
22	0xbe2e2ddf	-0.17009686
23	0x3e1129e6	0.14176139
24	0xbd72b24c	-0.05925207
25	0x3d09fffc	0.03369139
26	0x3d04ae89	0.032393012
27	0xbe66107d	-0.22467227
28	0xbd52c663	-0.051458728
29	0x3db020aa	0.0859998
30	0x3e085481	0.13313486
31	0x3eac04f0	0.33597517
32	0xbdb2af30	-0.087248206
33	0xbcfec7fa	-0.031101216
34	0xbe8fba42	-0.2807179
35	0x3e836c98	0.25668788
36	0x3e2c12e8	0.16804087
37	0xbe65ce06	-0.22441873
38	0xbb2309c9	-0.0024877659
39	0x3e79fd42	0.24413016
40	0x3d4167cf	0.04721814
41	0x3e7da3aa	0.24769464
42	0xbd0c8785	-0.03430893
43	0xbe871945	-0.26386467
44	0x3e50023a	0.2031335
45	0xbe5b9c83	-0.21446423
46	0x3e53d90e	0.20688269
47	0xbe6c21ae	-0.23059723
48	0xbeacc87d	-0.3374671
49	0x3e845e5e	0.25853246
50	0x3e612022	0.21984914
51	0x3ea20357	0.31643173
52	0xbe83c4aa	-0.2573598
53	0x3e9863b7	0.29763576
54	0xbdd1a924	-0.10237339
55	0x3e724096	0.2365745
56	0xbdabfb28	-0.08397514
57	0xbeaaf7ad	-0.33392087
58	0xbe23a680	-0.15981483
59	0x3d95780d	0.072982885
60	0xbdc3b40b	-0.09555825
61	0x3d8c1e20	0.068416834
62	0xbe731a52	-0.23740509
63	0xbd1d1732	-0.0383522

stream2.block.1.weight f4 [8]
0	0x3f823d82	1.0175021
1	0x3f7bb7b7	0.983272
2	0x3f81a51a	1.012851
3	0x3f7c63cf	0.98589796
4	0x3f7b1fcf	0.9809541
5	0x3f818d9e	1.0121343
6	0x3f811fdb	1.0087847
7	0x3f7c775d	0.98619634

stream2.block.1.bias f4 [8]
0	0x3c947244	0.018120892
1	0x3b5ad9a8	0.0033393893
2	0xbc230ba9	-0.0099515105
3	0xbc896cb7	-0.016775472
4	0x3930f237	0.000168749
5	0x3c51d425	0.012806927
6	0x3c95106b	0.018196305
7	0x3c6b77fb	0.014371867

stream2.block.1.running_mean f4 [8]
0	0xbd0e8ea3	-0.034803998
1	0xbd2ed3bd	-0.042682398
2	0x3d06f214	0.032945707
3	0xbd981542	-0.074259296
4	0x3d838dc1	0.06423522
5	0x3baba10f	0.0052377055
6	0x3c422194	0.011848826
7	0xbbd9a894	-0.0066424105

stream2.block.1.running_var f4 [8]
0	0x3dfd241c	0.12360403
1	0x3df75be3	0.12078073
2	0x3e0381cd	0.12842484
3	0x3df17fcc	0.117919534
4	0x3e107219	0.14106025
5	0x3e068656	0.13137183
6	0x3e12f4d9	0.14351214
7	0x3e01bbff	0.12669371
