saved_models/Flame_one_stream_rgb_index0_epoch15_final.pth (torch, 20887 bytes, 34 tensors)

IN.0.weight f4 [8, 3, 3, 3]
0	0x3d74e10b	0.05978493
1	0xbe07db5b	-0.13267271
2	0x3bdd0a88	0.00674564
3	0xbe1200d5	-0.1425813
4	0xbd96ac38	-0.07357067
5	0x3da83ff9	0.08215327
6	0xbdee2015	-0.11627213
7	0x3e0d62df	0.13807248
8	0xbdebb412	-0.11508955
9	0x3da82dba	0.08211847
10	0x3dbc35b4	0.091899306
11	0xbdb4e689	-0.088330336
12	0xbd491d3f	-0.049100157
13	0x3e3fc705	0.18728264
14	0x3cf53320	0.029931605
15	0xbcc5053d	-0.02405035
16	0x3e557b88	0.20847905
17	0xbe033004	-0.12811285
18	0xbcc294ae	-0.023752537
19	0xbc3ff65f	-0.011716454
20	0xbc26e64f	-0.010186746
21	0xbde47c09	-0.1115647
22	0x3dea9eed	0.11456094
23	0xbccd1979	-0.02503656
24	0x3e641731	0.22274472
25	0xbd83bcd1	-0.06432498
26	0xbdbd673a	-0.092482045
27	0x3e34ec60	0.17668295
28	0x3cebb6c8	0.02877368
29	0x3e290b2e	0.16508171
30	0xbd0d691b	-0.034524065
31	0x3d6e86e9	0.05823413
32	0xbd750e05	-0.059827823
33	0x3d5a98ca	0.053368367
34	0xbd8866a9	-0.06660206
35	0x3d1b0972	0.037850805
36	0xbdc137d7	-0.09434479
37	0xbddda548	-0.108225405
38	0xbdb198e3	-0.08671739
39	0xbd1de990	-0.03855282
40	0xbe1d6d2f	-0.15373681
41	0x3d3c13d6	0.045917355
42	0x3dbe1f58	0.09283322
43	0xbe357511	-0.17720439
44	0x3e42fa36	0.1904076
45	0x3d7ec36b	0.062198084
46	0xbddee5db	-0.10883685
47	0xbd527e4e	-0.051389985
48	0xbd110ac9	-0.035410676
49	0xbd51a3c8	-0.051181585
50	0x3e1504a1	0.14552547
51	0x3dd133bd	0.102149464
52	0xbe044a2e	-0.12918922
53	0xbd0c713f	-0.034287687
54	0x3e1c10b5	0.15240748
55	0xbe2e1be2	-0.17002824
56	0x3d84b0d8	0.06479043
57	0xbe3642f2	-0.17798975
58	0xbdd53795	-0.10410992
59	0xbdb44164	-0.08801535
60	0xbbe22e50	-0.0069024935
61	0xbd8fac36	-0.070152685
62	0x3d854ee2	0.06509186
63	0xbd657be6	-0.056026362
64	0x3dac5a15	0.08415619
65	0xbc40dfb4	-0.011772085
66	0xbc1573bb	-0.009121831
67	0x3e17788c	0.14792079
68	0xbe040e48	-0.12896073
69	0xbe25d98d	-0.1619627
70	0xbe1697d8	-0.14706361
71	0x3d87d01e	0.06631492
72	0xbdfa83b2	-0.1223215
73	0xbdd9f5cf	-0.106425874
74	0x3d9474fa	0.07248874
75	0x3e23184b	0.15927236
76	0x3e2af47b	0.16694824
77	0xbdaa2c15	-0.08309189
78	0x3dfcefec	0.12350449
79	0x3e460bf1	0.19340493
80	0x3e273e6b	0.16332404
81	0x3c235909	0.009969958
82	0x3bd7e389	0.0065884036
83	0xbd428398	-0.04748878
84	0xbd2df798	-0.042472452
85	0xbd2de349	-0.042453084
86	0xbe11c09f	-0.14233635
87	0x3ba0df6e	0.0049094474
88	0x3aee6bd5	0.0018190095
89	0xbd5ea559	-0.054356907
90	0x3d0b9377	0.03407618
91	0xbe2f06ee	-0.17092487
92	0x3e0e42c8	0.13892663
93	0x3cb209c7	0.021733178
94	0x3e087e3f	0.13329409
95	0xbcc73d2c	-0.024321161
96	0x3dfe3ee4	0.12414339
97	0x3d46a9ea	0.048501886
98	0x3cc203a4	0.023683377
99	0x3c8baa91	0.017049106
100	0x3d5c834b	0.05383615
101	0xbde56e57	-0.11202686
102	0xbe0a53d7	-0.13508545
103	0xbe480012	-0.19531277
104	0x3e27c003	0.1638184
105	0xbe071c00	-0.13194275
106	0x3d8a2a71	0.06746376
107	0x3e062560	0.13100195
108	0xbd9301f6	-0.071781084
109	0x3e267f52	0.16259506
110	0x3d6c51fb	0.05769537
111	0x3d35cbb4	0.04438372
112	0x3da25240	0.07925844
113	0xbe47c828	-0.19509947
114	0xbcfdb3a4	-0.030969448
115	0xbdc8176e	-0.09770094
116	0x3d96cf99	0.07363815
117	0x3e293883	0.16525464
118	0x3e38e128	0.1805464
119	0xbe4887a9	-0.19583
120	0x3db47147	0.088106684
121	0x3d36480a	0.044502296
122	0x3d972267	0.073796086
123	0xbe212325	-0.15736063
124	0xba28e22c	-0.00064423936
125	0xbcff8198	-0.031189725
126	0x3bb465ed	0.0055053146
127	0x3df58cb2	0.11989726
128	0x3d18d9ea	0.037317194
129	0x3d26f011	0.04075629
130	0xbe1e3761	-0.15450813
131	0x3dd049c3	0.10170319
132	0xbd9aced0	-0.075589776
133	0xbb9ffe99	-0.0048826453
134	0xbe4c799c	-0.19968265
135	0xbd45348d	-0.04814582
136	0x3d8c4c8d	0.068505384
137	0xbd0419bd	-0.03225111
138	0x3de794ea	0.113077
139	0x3d9a565a	0.075360015
140	0xbc97d654	-0.018534817
141	0x3debe8c5	0.11519007
142	0x3e05a0db	0.13049643
143	0xbd23ec36	-0.04002019
144	0xbe5436e6	-0.20724067
145	0x3e421e35	0.18956836
146	0x3e1d7ec4	0.15380388
147	0x3e32f469	0.17476048
148	0xbdc71308	-0.09720427
149	0x3e09be01	0.13451387
150	0xbe16234e	-0.14661905
151	0xbdd873fa	-0.10568996
152	0x3e29aa57	0.16568886
153	0xbdf7afe4	-0.12094095
154	0x3de90ebf	0.11379766
155	0x3db30f95	0.087432064
156	0xbdc64ee3	-0.09683015
157	0xbe1e5ca2	-0.15465024
158	0xbe36d5cc	-0.17854995
159	0x3dfa8004	0.12231448
160	0x3ba55a56	0.0050461693
161	0xbd88f5e9	-0.06687529
162	0x3e2f77db	0.17135565
163	0x3e376144	0.17908198
164	0xbe23f13f	-0.16009997
165	0xbce60553	-0.02807871
166	0x3e406bc6	0.18791112
167	0x3df6f9ed	0.12059388
168	0xbdb285fc	-0.08716962
169	0x3dd2d4dd	0.10294507
170	0x3e13341b	0.14375345
171	0x3c56efc1	0.013118685
172	0x3e2e01bf	0.16992854
173	0x3be6f062	0.007047699
174	0xbe35db12	-0.1775935
175	0xbe10b2d0	-0.14130712
176	0xbd846d94	-0.06466213
177	0x3c888389	0.016664283
178	0x3d8f0c17	0.06984728
179	0x3e12af72	0.1432474
180	0xbde8b0f5	-0.11361877
181	0xbe0eca9d	-0.13944478
182	0xbdd3a6e7	-0.103345685
183	0xbe3b79ba	-0.18308154
184	0xbdddeb02	-0.1083584
185	0xbd1d8a2f	-0.03846186
186	0x3db1dd0b	0.08684739
187	0xbd465f3b	-0.048430663
188	0x3ca7025f	0.020386873
189	0xbd4071db	-0.04698358
190	0x3e5f4f51	0.218076
191	0xbd283c80	-0.041073322
192	0x3d68ed95	0.0568672
193	0xbdebd364	-0.11514929
194	0x3d259ece	0.04043465
195	0xbe35ec40	-0.17765903
196	0x3dc34b64	0.09535864
197	0x3d1f4ef8	0.03889367
198	0xbc27c312	-0.0102393795
199	0xbe06338b	-0.131056
200	0xbe0baf70	-0.13641143
201	0xbddfe577	-0.10932439
202	0x3db87dad	0.09008346
203	0x3d6aa69b	0.057287794
204	0xbdd90820	-0.10597253
205	0xbcd3a475	-0.025835255
206	0x3e172b98	0.14762723
207	0xbdbaffe7	-0.09130841
208	0xbe22de44	-0.159051
209	0xbe0736f8	-0.13204563
210	0x3e0f0aa7	0.13968907
211	0x3e08cb20	0.13358736
212	0xbe19dafb	-0.1502494
213	0x3e2aed96	0.16692194
214	0xbd281782	-0.041038044
215	0xbe3f461d	-0.1867909

IN.0.bias f4 [8]
0	0xbdb7b628	-0.089702904
1	0xbd22a571	-0.03970856
2	0xbdf1551b	-0.11783811
3	0xbdde0b65	-0.10842017
4	0x3e4802cf	0.19532321
5	0x3da5cff7	0.08096307
6	0xbda44610	-0.08021176
7	0x3dd52af2	0.10408582

IN.1.weight f4 [8]
0	0x3f7d95ab	0.990565
1	0x3f8710db	1.0552019
2	0x3f8654fa	1.0494683
3	0x3f800091	1.0000173
4	0x3f735c8e	0.950631
5	0x3f765999	0.96230465
6	0x3f7f70c5	0.9978145
7	0x3f7d7e68	0.99021006

IN.1.bias f4 [8]
0	0xbd2561bc	-0.04037641
1	0x3d689e9b	0.056791883
2	0xbd09f8d1	-0.033684555
3	0x3d0b1693	0.033957075
4	0xbd2da374	-0.04239221
5	0xbd5b4d9f	-0.053540822
6	0x3d586b21	0.05283654
7	0xbb6e29d6	-0.0036340854

IN.1.running_mean f4 [8]
0	0xbd921e01	-0.07134629
1	0xbd76b25a	-0.060228683
2	0xbdeb3086	-0.114838645
3	0xbe1da131	-0.15393521
4	0x3e79181a	0.243256
5	0x3e8151c5	0.25257698
6	0xbd39397c	-0.045220837
7	0xbdfde8b1	-0.12397898

IN.1.running_var f4 [8]
0	0x3a224408	0.0006189947
1	0x3a91c8b7	0.001112244
2	0x3b2c2dc8	0.0026272405
3	0x3a00108a	0.0004885277
4	0x3ae3802d	0.0017356925
5	0x3b6f028d	0.0036470026
6	0x3b8c5a1a	0.004283202
7	0x3c1b5008	0.00947953

IN_both.0.weight f4 [8, 6, 3, 3]
0	0x3d91ca72	0.071186915
1	0xbce01954	-0.027355827
2	0xbb91dca0	-0.0044513494
3	0xbde47aa5	-0.11156205
4	0xbd2541a2	-0.040345795
5	0xbd885b5b	-0.0665805
6	0xbdc84630	-0.09779012
7	0xbd0e3b28	-0.034724385
8	0xbc0a4240	-0.008438647
9	0xbd72e074	-0.059296086
10	0x3d84a95a	0.06477614
11	0x3d748ef0	0.05970663
12	0x3bf26ce0	0.007398233
13	0x3de1ec9a	0.11031456
14	0x3cc247b8	0.023715839
15	0xbd554530	-0.052067935
16	0xbcf8a734	-0.030353166
17	0x3d4ab4b0	0.049488723
18	0xbd1004e4	-0.035160914
19	0xbcb756fc	-0.022380345
20	0xbc27ac50	-0.010233954
21	0x3c0a1a50	0.008429125
22	0x3da5e198	0.08099669
23	0x3d707150	0.058701813
24	0x3db6d9cc	0.0892826
25	0xbd8192ce	-0.06326829
26	0xbb1ae680	-0.0023635924
27	0xbda15f54	-0.078795105
28	0x3de8fd1a	0.113764
29	0x3db2d11a	0.08731289
30	0xbdba2088	-0.09088236
31	0xbdefcacd	-0.11708603
32	0xbd371bec	-0.044704363
33	0xbdb3a15e	-0.08771013
34	0xbd8bcfeb	-0.068267666
35	0xbd7faa66	-0.062418364
36	0xbddcf83d	-0.10789535
37	0xbe048260	-0.12940359
38	0x3cd461e0	0.025925577
39	0x3d796388	0.060885936
40	0x3de8dfb6	0.113707945
41	0xbe0aafba	-0.13543597
42	0xbdd92b5b	-0.106039725
43	0xbc9cd274	-0.01914332
44	0xbd47216c	-0.048615858
45	0xbbe273a0	-0.006910756
46	0x3dfc2670	0.12312019
47	0xbcc19424	-0.02363021
48	0xbd56f6de	-0.052481525
49	0x3c1eec60	0.009699911
50	0x3d8bf4ea	0.06833823
51	0xbde0cd74	-0.10976687
52	0xbc4e64b8	-0.012597255
53	0x3e09686e	0.13418743
54	0xbd75ed9a	-0.060041048
55	0x3dff0b5c	0.124533385
56	0x3dd91e56	0.10601489
57	0xbde5b1b9	-0.112155385
58	0xbd225c46	-0.03963878
59	0xbca7bac8	-0.020474806
60	0x3d19137c	0.037372097
61	0x3e05fd2e	0.13084862
62	0x3e09d8b4	0.13461572
63	0x3d17b398	0.03703651
64	0xbb440f40	-0.0029916316
65	0x3d886d16	0.066614315
66	0x3b8fbcc0	0.0043865144
67	0x3d07557c	0.03304051
68	0x3dd5bc7e	0.10436343
69	0xbdb1103e	-0.08645676
70	0x3dcbb7d6	0.09947173
71	0xbdd5fdfb	-0.104488336
72	0x3c837da8	0.016051129
73	0x3df88c7c	0.1213617
74	0x3daad6da	0.08341761
75	0x3de378ea	0.11107047
76	0x3ddb605a	0.10711737
77	0xbdf63a06	-0.12022786
78	0xbdb787b0	-0.08961427
79	0x3d272398	0.04080543
80	0xbd0e9ed2	-0.03481943
81	0xbd0d06d8	-0.034430355
82	0xbdd1b3be	-0.10239361
83	0x3d66f494	0.05638559
84	0x3cfa46c8	0.03055133
85	0xbd9d975a	-0.07694884
86	0xbd659bd4	-0.056056812
87	0xbac99100	-0.0015378296
88	0xbdc6f1e3	-0.09714105
89	0x3db782d8	0.08960503
90	0x3c6d5f80	0.014488101
91	0x3ddd10c6	0.10794215
92	0x3d5319a4	0.051538125
93	0x3d8df480	0.069314
94	0x3e09fd64	0.13475567
95	0xbe08f22c	-0.13373631
96	0x3cd06dc0	0.025442958
97	0x3d72898c	0.059213206
98	0xbd77b4bc	-0.060475096
99	0x3d3dd394	0.046344355
100	0x3d196b28	0.037455708
101	0xbddba0e6	-0.10724048
102	0xbe09437d	-0.13404651
103	0xbdb1b7f9	-0.08677668
104	0xbd9c11da	-0.076205924
105	0xbcd42eb4	-0.025901176
106	0x3e07681a	0.13223305
107	0xbe047403	-0.1293488
108	0xbda1a163	-0.0789211
109	0xbd5011a2	-0.050798066
110	0xbd880712	-0.066419736
111	0xbd7ba2d4	-0.061434582
112	0xbde18d4c	-0.11013278
113	0xbdddb4f6	-0.10825531
114	0xbc92fb88	-0.017942205
115	0x3cadb2e8	0.021203473
116	0xbbff90e0	-0.007799253
117	0x3d78c8f0	0.060738504
118	0x3dc86c5e	0.097862944
119	0x3ccc1280	0.024911165
120	0x3dd3e1a6	0.103457734
121	0xbdfd40b9	-0.123658605
122	0x3d8425be	0.06452511
123	0xbda80a02	-0.08205034
124	0x3d966816	0.073440716
125	0xbd979653	-0.07401719
126	0x3d971684	0.073773414
127	0xbdda865e	-0.1067016
128	0x3d44a2b0	0.048006713
129	0x3d6c1f98	0.057647318
130	0x3dbf0c8a	0.093285635
131	0xbcb3d180	-0.021950483
132	0x3da8bbe0	0.08238959
133	0x3da3a4fe	0.07990454
134	0x3df93db8	0.12169975
135	0xbb9d8020	-0.0048065335
136	0xbdc8a037	-0.097961836
137	0xbda330d0	-0.079682946
138	0x3dd89b40	0.105764866
139	0xbdbb0916	-0.091325924
140	0xbca19af8	-0.019727215
141	0xbd05b676	-0.03264471
142	0xbd3135f2	-0.043264337
143	0x3c727fa0	0.014800936
144	0xba192e00	-0.00058433414
145	0xbcf419c8	-0.02979745
146	0x3db8c0b2	0.09021129
147	0x3d593510	0.05302912
148	0xbcf90a18	-0.03040032
149	0xbd12f160	-0.035874724
150	0xbdddc5bb	-0.1082873
151	0xbd364faa	-0.044509567
152	0xbdb38c47	-0.0876699
153	0x3d616808	0.055030853
154	0x3d7f4658	0.062322944
155	0xbd4ac764	-0.04950656
156	0x3bbe0660	0.0057991
157	0xbdae4c02	-0.08510591
158	0xbda57115	-0.08078209
159	0xbdf66337	-0.120306425
160	0x3deb6178	0.114932
161	0x3dfb319c	0.122653216
162	0x3c630d30	0.013858125
163	0xbd3ff408	-0.046863586
164	0xbdb8b180	-0.090182304
165	0x3da856ee	0.082197055
166	0xbdb2ce50	-0.08730757
167	0x3da521c4	0.08063081
168	0x3cb4fba8	0.022092655
169	0x3d9ed5dc	0.07755634
170	0xbd936fdb	-0.07199069
171	0xbe09011a	-0.13379326
172	0x3d657f70	0.056029737
173	0xbcb36058	-0.021896526
174	0xbcefdb78	-0.029279456
175	0xbdae0a32	-0.08498038
176	0x3dfcc558	0.12342328
177	0x3dfaaf64	0.12240484
178	0x3d8f544a	0.06998499
179	0xbdedb6f2	-0.1160716
180	0xbdece278	-0.11566633
181	0x3db827b2	0.08991946
182	0x3c8b5cb0	0.01701197
183	0xbdb2afef	-0.08724963
184	0x3d91abb2	0.071128264
185	0xbd2cfa26	-0.042230748
186	0x3db78b34	0.08962098
187	0xbd827fc9	-0.06372029
188	0xbdfb448a	-0.12268932
189	0xbcbfaebc	-0.02339875
190	0x3d89aeba	0.067227796
191	0xbd544f4a	-0.05183343
192	0xbdc86927	-0.09785681
193	0xbde202f5	-0.1103572
194	0x3d2b7a74	0.041864827
195	0xbdb947ec	-0.09046921
196	0x3dc20fe4	0.09475687
197	0x3dc4bd70	0.09606445
198	0xbcfafd38	-0.030638322
199	0x3b534900	0.0032239556
200	0x3e0a6db2	0.13518408
201	0xbdbe92d4	-0.09305349
202	0x3dba045a	0.09082861
203	0x3bb732a0	0.0055907518
204	0xbd9f869c	-0.077893466
205	0xbdb9cdba	-0.09072442
206	0x3d1e4a38	0.038645
207	0x3d9cc738	0.076551855
208	0x3dfbff8c	0.12304601
209	0x3de383c4	0.11109117
210	0x3dada5d2	0.08478893
211	0x3ccb4ae0	0.024815977
212	0xbcef1bb4	-0.029188015
213	0xbbe0ba00	-0.0068581104
214	0xbdfcf87b	-0.123520814
215	0xbc439b40	-0.01193887
216	0x3be3a1a0	0.0069467574
217	0x3dc2b56c	0.0950726
218	0x3e05f69a	0.13082352
219	0x3cab60f8	0.020920262
220	0x3d83af6c	0.064299434
221	0x3dd042c0	0.101689816
222	0xbdcf5fe3	-0.10125711
223	0xbd2dd768	-0.042441756
224	0xbdfc2164	-0.12311056
225	0x3dc8665a	0.09785147
226	0x3db9bf78	0.09069723
227	0xbd86eeb9	-0.065885015
228	0x3d82ddf4	0.063899904
229	0xbdd8b4e6	-0.10581379
230	0x3db4698e	0.088091955
231	0xbd3a3432	-0.045459934
232	0x3c8e97c0	0.017406344
233	0x3e0614b4	0.13093835
234	0x39f6e400	0.0004709065
235	0x3dcfcf8e	0.1014701
236	0xbe035f51	-0.12829329
237	0xbdaba506	-0.08381085
238	0xbd1fbd1c	-0.038998708
239	0xbdb264c0	-0.08710623
240	0x3d25704c	0.040390298
241	0x3cdc24a0	0.026872933
242	0x3df6c064	0.12048414
243	0xbe04ae7b	-0.12957184
244	0xbddf5fc0	-0.10906935
245	0x3d005388	0.03132966
246	0x3e00ceb2	0.12578848
247	0x3d9d85ec	0.07691559
248	0x3d857a48	0.06517464
249	0x3cfb9da0	0.03071481
250	0x3c956de8	0.018240884
251	0x3b803d40	0.0039135516
252	0x3d8282b8	0.06372589
253	0xbc9540a4	-0.0182193
254	0x3c693ed0	0.014236167
255	0xbc52f7d8	-0.012876473

IN_both.0.bias f4 [8]
0	0x3d90947a	0.0705957
1	0x3d0ac188	0.033875972
2	0xbdbe10af	-0.09280526
3	0xbe09b87f	-0.13449286
4	0x3cdf7148	0.027275696
5	0x3e02fa0a	0.12790695
6	0x3d1290e4	0.03578271
7	0x3d3abfd4	0.045593098

IN_both.1.weight f4 [8]
0	0x3f800000	1.0
1	0x3f800000	1.0
2	0x3f800000	1.0
3	0x3f800000	1.0
4	0x3f800000	1.0
5	0x3f800000	1.0
6	0x3f800000	1.0
7	0x3f800000	1.0

IN_both.1.bias f4 [8]
0	0x00000000	0.0
1	0x00000000	0.0
2	0x00000000	0.0
3	0x00000000	0.0
4	0x00000000	0.0
5	0x00000000	0.0
6	0x00000000	0.0
7	0x00000000	0.0

IN_both.1.running_mean f4 [8]
0	0x00000000	0.0
1	0x00000000	0.0
2	0x00000000	0.0
3	0x00000000	0.0
4	0x00000000	0.0
5	0x00000000	0.0
6	0x00000000	0.0
7	0x00000000	0.0

IN_both.1.running_var f4 [8]
0	0x3f800000	1.0
1	0x3f800000	1.0
2	0x3f800000	1.0
3	0x3f800000	1.0
4	0x3f800000	1.0
5	0x3f800000	1.0
6	0x3f800000	1.0
7	0x3f800000	1.0

residual.weight f4 [8, 8, 1, 1]
0	0x3c7c7188	0.015407927
1	0x3e3fb458	0.1872114
2	0xbd44c46f	-0.048038896
3	0x3e8502c9	0.25978687
4	0x3e8941f8	0.26808143
5	0x3e30ec98	0.17277753
6	0xbe80b672	-0.25139195
7	0xbe46d55a	-0.19417325
8	0xbe154619	-0.14577521
9	0x3caa6953	0.020802176
10	0x3dd92ae8	0.10603887
11	0xbe933a0b	-0.2875522
12	0xbb0b9223	-0.002129682
13	0x3eb852ba	0.36000615
14	0x3dd53cd3	0.10411992
15	0xbe0ed546	-0.13948545
16	0xbdfd7951	-0.12376655
17	0xbe5ee3a4	-0.21766526
18	0x3e2eb4c3	0.17061143
19	0xbcd03fa4	-0.025420971
20	0x3e108f4b	0.14117162
21	0xbe38b4fc	-0.1803779
22	0x3dcf3959	0.1011836
23	0xbe639438	-0.2222451
24	0xbe153dd6	-0.1457437
25	0x3de6a5bc	0.1126208
26	0x3e7c9225	0.24665125
27	0xbd9ca521	-0.07648683
28	0x3de0391f	0.10948395
29	0x3d9c486d	0.076310016
30	0x3da11c4e	0.07866727
31	0xbdfd307c	-0.12362763
32	0x3e96640e	0.2937321
33	0x3e4425ef	0.19155096
34	0x3bad41f9	0.0052874056
35	0xbe149b72	-0.14512423
36	0xbe6b231b	-0.2296261
37	0xbe29bea2	-0.16576627
38	0x3e59c043	0.21264748
39	0xbec759ec	-0.38935792
40	0xbe7e08f9	-0.2480811
41	0xbdbe5fde	-0.09295629
42	0xbe48934a	-0.19587436
43	0x3e709131	0.23492886
44	0xbe704be5	-0.23466451
45	0x3dfaebba	0.122519925
46	0xbe8c39ba	-0.27387792
47	0xbccc2e53	-0.024924433
48	0xbe195558	-0.14973962
49	0x3eaecf8f	0.3414273
50	0x3ebde8eb	0.37091765
51	0x3deea501	0.11652566
52	0xbd93653c	-0.07197043
53	0xbe41598e	-0.18881819
54	0x3e73ba28	0.23801482
55	0x3e275449	0.16340746
56	0xbe793159	-0.24335231
57	0xbe872690	-0.26396608
58	0xbdc0d821	-0.09416223
59	0xbdb3425f	-0.08752894
60	0x3d0e2d6e	0.034711294
61	0xbd5c3f34	-0.053771213
62	0xbde68636	-0.112560675
63	0x3cd026db	0.025409153

residual.bias f4 [8]
0	0x3c12e7b4	0.008966375
1	0x3e6d1795	0.23153527
2	0xbd5ff775	-0.054679353
3	0xbd0ab596	-0.03386458
4	0x3e44b745	0.19210537
5	0xbe86ebcb	-0.2635177
6	0xbd01e00d	-0.031707812
7	0x3df51000	0.119659424

block.0.depthwise.weight f4 [8, 1, 3, 3]
0	0xbd9278e9	-0.07151968
1	0xbcf9903b	-0.030464282
2	0xbe792df9	-0.24333943
3	0x3d34c910	0.04413706
4	0x3e87025d	0.2636899
5	0x3e887d3f	0.26658055
6	0xbe54494e	-0.20731089
7	0x3dac03c8	0.08399159
8	0x3dca586d	0.09880147
9	0x3e545a2d	0.20737524
10	0x3d4d9878	0.050194234
11	0xbe8cf52a	-0.27530795
12	0xbd35c6c6	-0.04437902
13	0x3da3d288	0.0799914
14	0xbe0d767d	-0.13814731
15	0xbe977fe0	-0.29589748
16	0x3e933b2d	0.28756085
17	0x3de26126	0.11053686
18	0xbe41013c	-0.18848127
19	0xbe9f7b20	-0.31148624
20	0x3e419e1f	0.18907975
21	0xbe0a894b	-0.13528936
22	0xbc15e269	-0.009148219
23	0xbea60510	-0.32425737
24	0xbeb17f2a	-0.3466733
25	0xbe4704a3	-0.19435363
26	0xbea3695b	-0.31916317
27	0xbd0185ae	-0.031621628
28	0x3e85760a	0.2606662
29	0xbe222a2d	-0.15836401
30	0x3e3b1aa8	0.18271887
31	0x3d0279dd	0.0318545
32	0x3e87c1ed	0.2651514
33	0x3dc9b99d	0.09849856
34	0x3ea2415a	0.31690484
35	0x3d4d0d0a	0.050061263
36	0x3d8baca9	0.06820042
37	0xbd94a5a6	-0.072581574
38	0x3e26bfcc	0.16284102
39	0x3e8c72bb	0.27431282
40	0xbab4ab7c	-0.0013784016
41	0xbe72ec47	-0.23722945
42	0xbe7ae8bb	-0.24502842
43	0x3e52d849	0.20590319
44	0x3cf47d22	0.029844824
45	0xbe93a578	-0.2883718
46	0xbe2ab8ab	-0.16672008
47	0x3ddeb802	0.108749405
48	0xbd44a26e	-0.048006468
49	0xbe51379f	-0.20431374
50	0x3e0ef716	0.13961443
51	0xbd128141	-0.035767797
52	0x3e50a634	0.20375901
53	0xbc1a054e	-0.009400679
54	0xbe70198e	-0.23447248
55	0x3d469d97	0.048490133
56	0xbe7f05ea	-0.249046
57	0xbe71615a	-0.23572293
58	0x3e0635eb	0.13106506
59	0xbe484555	-0.19557698
60	0x3d3ca79c	0.046058282
61	0x3e7ea95b	0.24869291
62	0xbe1fc5ee	-0.15602848
63	0x3da1bbed	0.07897172
64	0x3b285a4b	0.0025688584
65	0xbdb0120c	-0.08597192
66	0x3ceab313	0.028649842
67	0x3e8ef10d	0.27918282
68	0x3d07ece1	0.03318489
69	0x3d099db6	0.03359767
70	0xbe8c136f	-0.27358577
71	0x3e3a496d	0.18192072

block.0.pointwise.weight f4 [8, 8, 1, 1]
0	0x3c679eb3	0.014136958
1	0xbdcb20f5	-0.099183954
2	0x3e96eb63	0.2947646
3	0x3cf53132	0.029930685
4	0x3dcc5048	0.0997625
5	0x3e866636	0.26249856
6	0xbe856686	-0.26054782
7	0x3c7ba366	0.015358781
8	0x3e12c348	0.14332306
9	0xbe88709c	-0.26648414
10	0xbe96a0d6	-0.29419583
11	0x3dc9d75f	0.09855532
12	0xbe85131a	-0.25991136
13	0xbc862481	-0.016374828
14	0xbe79a985	-0.24381073
15	0xbe1a508a	-0.15069786
16	0xbe8ff5d9	-0.28117254
17	0x3e3b1134	0.18268281
18	0xbdf67c04	-0.12035373
19	0x3e4ea37e	0.20179555
20	0x3e21e38b	0.15809457
21	0xbe293f1c	-0.1652798
22	0xbe4251d3	-0.18976526
23	0xbea311b9	-0.3184946
24	0xbe2d3401	-0.16914369
25	0xbdff5020	-0.124664545
26	0xbdc7ec69	-0.097618885
27	0xbec8fd7c	-0.39255893
28	0x3eb1f11e	0.3475427
29	0xbe8d8091	-0.2763715
30	0xbe827cd1	-0.25485852
31	0x3e8e3cd9	0.27780798
32	0x3e57cc15	0.21073945
33	0xbddb4f15	-0.10708443
34	0x3dbba852	0.09162964
35	0x3de6a6c3	0.11262276
36	0x3e862313	0.26198635
37	0xbe2ca1b9	-0.16858567
38	0x3d8e5fb9	0.069518514
39	0x3c6a4558	0.014298759
40	0xbdec9b42	-0.115530506
41	0xbca1589f	-0.019695578
42	0xbe81dace	-0.25362247
43	0xbdccb8b7	-0.09996169
44	0xbe967d33	-0.29392394
45	0xbe45b778	-0.19308269
46	0x3b712546	0.0036795898
47	0xbd36d22d	-0.044634033
48	0x3e7cb093	0.24676733
49	0xbdf79f83	-0.12090971
50	0xbb88f877	-0.00418001
51	0x3dfac586	0.12244706
52	0x3d63ebbc	0.055644736
53	0xbe624313	-0.220959
54	0x3dd6baa5	0.10484818
55	0x3e857bce	0.26071018
56	0x3e961b02	0.2931748
57	0xbe116186	-0.14197358
58	0xbe8d79db	-0.2763203
59	0x3d305ee5	0.04305925
60	0x3e2338e2	0.15939668
61	0xbea793fa	-0.32730085
62	0xbe98b564	-0.2982589
63	0xbe9b1fd3	-0.30297717

block.1.weight f4 [8]
0	0x3f7e517c	0.99343085
1	0x3f80664f	1.0031222
2	0x3f82405e	1.0175893
3	0x3f79b365	0.9753936
4	0x3f83c941	1.0295793
5	0x3f7fc64c	0.9991195
6	0x3f7df4c5	0.99201614
7	0x3f7aa3f1	0.97906405

block.1.bias f4 [8]
0	0x3d46b20b	0.04850964
1	0xbb144cf3	-0.0022628873
2	0x3d551056	0.052017532
3	0x3ca80920	0.020512164
4	0x3d28a71b	0.04117499
5	0x3c303e3c	0.010757025
6	0x3d2d2527	0.04227176
7	0xbd16ad6b	-0.036786478

block.1.running_mean f4 [8]
0	0xbe03845e	-0.12843463
1	0x3e8955d1	0.26823285
2	0x3e32099c	0.17386478
3	0x3d415c51	0.04720718
4	0x3c9db631	0.019251915
5	0x3df11235	0.11771051
6	0x3dd28f9a	0.10281296
7	0x3e99571e	0.29949278

block.1.running_var f4 [8]
0	0x3dc07c5b	0.09398719
1	0x3d62d3f3	0.05537791
2	0x3ca06c96	0.019583028
3	0x3d8f025d	0.06982873
4	0x3c7c8ae3	0.015413973
5	0x3d6d6ef9	0.05796716
6	0x3c62292f	0.013803764
7	0x3d8dc213	0.06921782

block.3.depthwise.weight f4 [8, 1, 3, 3]
0	0x3e91a174	0.2844349
1	0x3e0c23d6	0.13685545
2	0x3de200f8	0.11035341
3	0x3dc71a68	0.097218335
4	0xbe4b7183	-0.1986752
5	0x3e47d3f7	0.19514452
6	0x3e4eabde	0.2018275
7	0x3e624e30	0.22100139
8	0x3e54ab4e	0.20768473
9	0x3d89e50c	0.0673314
10	0xbd3b24f4	-0.045689538
11	0xbe9486ab	-0.29008994
12	0x3eb5ebbe	0.3553142
13	0xbe683437	-0.22676168
14	0xbdea5885	-0.11442665
15	0x3e9461a1	0.28980735
16	0xbe24b799	-0.16085662
17	0x3e514582	0.20436671
18	0xbe0b6ec8	-0.13616478
19	0xbe602895	-0.21890481
20	0xbd05a29b	-0.032625776
21	0x3de97299	0.11398811
22	0xbd08e384	-0.0334201
23	0xbe2c6e71	-0.16839005
24	0xbe867350	-0.2625985
25	0x3c07fd33	0.0083001135
26	0xbe5d83f1	-0.21632363
27	0xbdfe79c4	-0.12425569
28	0x3e2b9831	0.16757275
29	0x3d365a07	0.04451945
30	0xbdbfba2f	-0.093616836
31	0xbdbcd3d4	-0.092200905
32	0x3e06b661	0.1315551
33	0x3ddc4dc2	0.107570186
34	0x3e056c14	0.1302951
35	0x3e430b29	0.19047226
36	0x3e035804	0.12826544
37	0x3ec01ef3	0.37523612
38	0xbe5c5daa	-0.21520105
39	0x3d78e9cc	0.06076984
40	0x3e8f6067	0.28003237
41	0x3e54b777	0.20773111
42	0xbdc80a0d	-0.09767542
43	0x3e43fff2	0.19140604
44	0x3c302dea	0.010753134
45	0xbe443952	-0.19162491
46	0x3e19f87a	0.15036193
47	0x3e25ea95	0.16202767
48	0x3d6aa1a5	0.057283062
49	0xbe0e3544	-0.13887507
50	0x3c1be33c	0.009514626
51	0x3e90be37	0.28270122
52	0xbd5807b6	-0.05274173
53	0xbdf5a06b	-0.11993488
54	0xbe019426	-0.1265417
55	0xbe667318	-0.22504842
56	0x3ea90cf5	0.33017698
57	0x3e82a324	0.2551509
58	0xbe0e4fff	-0.13897704
59	0x3e27b98c	0.16379374
60	0x3e9cc48d	0.30618706
61	0x3e4a75e8	0.1977154
62	0xbdbed806	-0.09318547
63	0xbe905c12	-0.28195244
64	0xbe983f36	-0.29735726
65	0x3d24b2f3	0.04020972
66	0xbca6fbaa	-0.020383675
67	0x3cd7602f	0.026290981
68	0x3d4ebc30	0.05047244
69	0x3e183975	0.14865668
70	0xbe9ef286	-0.31044406
71	0xbc07387d	-0.008253214

block.3.pointwise.weight f4 [8, 8, 1, 1]
0	0x3e75e5f6	0.24013504
1	0x3e7e3eaa	0.24828592
2	0x3e06bd02	0.13158038
3	0x3d915541	0.07096339
4	0x3e2fad9b	0.17156069
5	0xbe9ae855	-0.3025538
6	0x3dbd0aff	0.09230613
7	0xbe3866f2	-0.1800802
8	0xbe29b323	-0.16572241
9	0xbe99bcc1	-0.3002682
10	0x3d91d761	0.071211584
11	0xbe92d0af	-0.28674838
12	0x3ea64c97	0.32480308
13	0xbdd17482	-0.102273
14	0xbd89f596	-0.06736295
15	0xbd8d4d29	-0.06899483
16	0x3e9735fe	0.2953338
17	0xbdbd0d41	-0.092310436
18	0x3e82481a	0.25445634
19	0xbdc63cd7	-0.09679573
20	0xbdd958e9	-0.106126614
21	0x3e554c11	0.20829798
22	0x3e49c4f9	0.19704045
23	0x3d3be9bc	0.045877203
24	0xbe95244a	-0.2912925
25	0x3e4920d2	0.19641426
26	0xbe930308	-0.2871325
27	0x3d0c6b9e	0.03428232
28	0x3ea55516	0.32291478
29	0xbea5309e	-0.32263654
30	0x3e956ba7	0.29183695
31	0x3d8e0854	0.06935182
32	0x3ded2489	0.11579234
33	0x3e98c408	0.2983706
34	0xbe434a60	-0.1907134
35	0x3e224637	0.15847097
36	0x3e771c3f	0.24131869
37	0x3de2dd0f	0.1107732
38	0x3ea12db7	0.3148019
39	0x3e8d2a28	0.27571225
40	0xbeb219c6	-0.3478529
41	0x3e112c8c	0.1417715
42	0x3e67597a	0.22592726
43	0x3dbd33a1	0.09238363
44	0xbdb23816	-0.08702104
45	0x3bc8f83d	0.006133108
46	0xbdaac524	-0.08338383
47	0x3e178d20	0.14799929
48	0x3e7a8cbc	0.24467748
49	0x3c9da351	0.019242914
50	0x3e5789ed	0.21048708
51	0x3e94ea12	0.2908483
52	0xbb789945	-0.0037933153
53	0x3deca508	0.11554915
54	0x3e160c60	0.14653158
55	0xbe71f047	-0.23626815
56	0x3e17eeca	0.14837185
57	0xbda38485	-0.079842605
58	0xbe57a9ce	-0.21060869
59	0xbe2e64f3	-0.17030697
60	0x3e9a6df9	0.30162027
61	0x3e9b4566	0.30326384
62	0x3cb53f67	0.02212496
63	0x3e865397	0.2623565

block.4.weight f4 [8]
0	0x3f729789	0.94762474
1	0x3f80091b	1.0002779
2	0x3f7816c5	0.96909744
3	0x3f78305f	0.9694881
4	0x3f758746	0.95909536
5	0x3f8e2623	1.1105388
6	0x3f8120d6	1.0088146
7	0x3f7a865d	0.9786127

block.4.bias f4 [8]
0	0x3d374800	0.0447464
1	0x3c903eb3	0.017608022
2	0xbd07a264	-0.033113852
3	0x3d1830b6	0.03715583
4	0xbd5ba001	-0.05361939
5	0x3dbb3c6d	0.09142385
6	0x3d8bf84b	0.068344675
7	0xbd786d28	-0.060650975

block.4.running_mean f4 [8]
0	0x3e550aae	0.20804855
1	0xbd7ce83c	-0.061744913
2	0x3d606a6b	0.054788988
3	0x3de165c9	0.11005742
4	0x3e8dec59	0.2771938
5	0xbeab7656	-0.3348872
6	0x3e4c0795	0.19924767
7	0x3e518a3b	0.20462887

block.4.running_var f4 [8]
0	0x3d17426c	0.03692858
1	0x3d1e7526	0.03868594
2	0x3d1a36ec	0.037650034
3	0x3daf4b47	0.0855928
4	0x3db72166	0.08941917
5	0x3d9cbcc8	0.07653195
6	0x3cd458cd	0.02592125
7	0x3d92f37d	0.07175348

block2.0.depthwise.weight f4 [8, 1, 3, 3]
0	0x3e8687ab	0.2627538
1	0x3e6ddb44	0.23228174
2	0xbc71136a	-0.014714101
3	0xbe2cb572	-0.16866091
4	0x3be1cf79	0.0068911877
5	0xbe977e58	-0.2958858
6	0xbe8c2604	-0.27372754
7	0xbe8f5dc2	-0.2800122
8	0x3c6d97c7	0.014501519
9	0xbe88945f	-0.26675698
10	0xbe866fc3	-0.26257142
11	0xbe309fd9	-0.17248477
12	0xbe916818	-0.2839973
13	0x3e686d80	0.22698021
14	0x3e508a81	0.20365335
15	0xbe5d35b0	-0.21602511
16	0xbdc642c7	-0.096807055
17	0xbe37f4c9	-0.17964472
18	0x3c7bc7eb	0.015367488
19	0xbe2635e8	-0.16231501
20	0x3df43335	0.119238295
21	0xbdc13e29	-0.09435684
22	0x3e322ff9	0.17401113
23	0x3d5a2218	0.05325517
24	0x3e26a147	0.1627246
25	0xbe0dcbbe	-0.13847253
26	0x3d83e2b6	0.06439726
27	0x3e595901	0.21225359
28	0xbe81a768	-0.25323033
29	0x3e83e312	0.25759178
30	0x3c43d431	0.011952446
31	0x3e464936	0.19363865
32	0xbe4a7498	-0.1977104
33	0xbe49685c	-0.19668716
34	0xbd4d454e	-0.050114922
35	0x3e835da5	0.25657383
36	0x3e43d406	0.1912385
37	0xbe88bae5	-0.2670509
38	0x3e4ad745	0.19808681
39	0xbd5d89e9	-0.0540866
40	0x3e0bfc36	0.1367043
41	0x3d530ce3	0.05152596
42	0xbe9b1389	-0.30288342
43	0xbe93a780	-0.2883873
44	0xbda359ca	-0.0797611
45	0xbe2da412	-0.16957119
46	0xbcaa9349	-0.020822184
47	0x3e3dfaac	0.18552655
48	0x3e211a96	0.15732798
49	0x3d7873df	0.06065738
50	0xbed8148f	-0.42203185
51	0xbe9f203e	-0.31079286
52	0xbe4e5e81	-0.20153238
53	0xbe81223b	-0.25221428
54	0xbe0802d6	-0.13282332
55	0x3e71185c	0.23544449
56	0xbe9c2a7b	-0.3050116
57	0xbdaf1aae	-0.085500106
58	0xbec01130	-0.37513113
59	0x3be0e74c	0.0068635102
60	0xbe51b9e2	-0.20481065
61	0x3dad7c78	0.08471006
62	0x3e067bcd	0.13133164
63	0x3e73bf07	0.2380334
64	0xbeb3858b	-0.35062823
65	0xbe2cc7ba	-0.16873065
66	0x3c5dcdef	0.013537868
67	0x3e5a8b35	0.21342166
68	0xbe8e5082	-0.27795798
69	0x3ca24521	0.019808354
70	0xbe906eaa	-0.2820943
71	0xbe8c348b	-0.27383837

block2.0.pointwise.weight f4 [8, 8, 1, 1]
0	0xbd514c0a	-0.051097907
1	0x3e5b841c	0.21437114
2	0x3e03711f	0.12836121
3	0xbe9c8221	-0.3056803
4	0x3cd53a9e	0.026028927
5	0xbdf23e77	-0.118283205
6	0x3e28f5ef	0.16500066
7	0x3e7b725e	0.24555346
8	0x3e14c910	0.14529824
9	0x3d83adc1	0.06429625
10	0xbe4a8d86	-0.1978055
11	0xbe9d60d5	-0.3073794
12	0xbe0f2713	-0.1397975
13	0xbde66721	-0.11250139
14	0x3e5886aa	0.2114512
15	0xbd7d80f2	-0.06189055
16	0xbe4668ff	-0.1937599
17	0xbe844442	-0.25833327
18	0xbe529938	-0.20566261
19	0x3e022078	0.12707698
20	0xbdbc6c97	-0.09200399
21	0x3c6ab26f	0.014324768
22	0x3e390771	0.18069245
23	0xbdca21c6	-0.09869723
24	0x3d3f52df	0.04670989
25	0xbdac518c	-0.08413991
26	0x3e8bfe0c	0.2734226
27	0x3d692749	0.05692223
28	0xbe8b7989	-0.2724116
29	0x3e42ae1b	0.19011728
30	0x3e1f15f2	0.15535715
31	0xbe639912	-0.2222636
32	0xbe5ba44b	-0.21449392
33	0xbe87a907	-0.26496145
34	0xbe92beef	-0.28661296
35	0xbe0a9915	-0.13534959
36	0xbe3a4c52	-0.18193176
37	0x3e42598e	0.18979475
38	0xbe66b8ef	-0.22531484
39	0xbdcabfd8	-0.098998725
40	0x3e318614	0.17336303
41	0x3dbbab3d	0.091635205
42	0x3e8c92e8	0.2745583
43	0x3debe218	0.11517733
44	0x3d118882	0.035530575
45	0x3e77a299	0.2418312
46	0xbe56dca0	-0.209826
47	0x3e5111d3	0.20416956
48	0xbe63a41b	-0.2223057
49	0x3e813de6	0.25242537
50	0x3d7a62c2	0.06112934
51	0xbe72e074	-0.23718435
52	0x3e7bdf9b	0.24597017
53	0x3ede2a16	0.43391484
54	0xbddf1689	-0.1089297
55	0x3e10db04	0.14146048
56	0x3d2ffc20	0.042965055
57	0x3e836253	0.25660953
58	0x3e4d5465	0.20051725
59	0xbe936b7e	-0.28792948
60	0x3e3e9cd6	0.18614516
61	0xbeee3add	-0.46529284
62	0xbe3fc8ac	-0.18728894
63	0x3dfed1ca	0.12442358

block2.1.weight f4 [8]
0	0x3f89b8b0	1.0759487
1	0x3f8abeef	1.0839518
2	0x3f7f72de	0.9978465
3	0x3f8a042c	1.0782523
4	0x3f899188	1.0747538
5	0x3f8c0ad5	1.0940806
6	0x3f865ae0	1.0496483
7	0x3f8ddece	1.108362

block2.1.bias f4 [8]
0	0x3d8e663c	0.069530934
1	0x3d913819	0.07090778
2	0xbce218f8	-0.027599797
3	0x3d387143	0.04502989
4	0x3d94486b	0.07240375
5	0x3d7aba2b	0.0612127
6	0xbb13e202	-0.002256513
7	0x3dc9e552	0.098581925

block2.1.running_mean f4 [8]
0	0xbefa43c6	-0.48879832
1	0xbe963a6c	-0.29341447
2	0x3e9df50d	0.3085102
3	0x3e2c513e	0.16827866
4	0x3f1559db	0.58340234
5	0xbdd88b4b	-0.10573443
6	0xbeafe411	-0.34353688
7	0xbe8be38b	-0.2732204

block2.1.running_var f4 [8]
0	0x3e5c474c	0.21511573
1	0x3da41818	0.08012408
2	0x3deed69d	0.11662028
3	0x3deaff13	0.11474433
4	0x3e94898d	0.29011193
5	0x3dab5dcf	0.08367502
6	0x3e29063d	0.16506286
7	0x3e75e0d9	0.24011554

out.0.weight f4 [3, 8]
0	0x3dc8f9de	0.098132834
1	0xbe79a69e	-0.24379966
2	0x3e4bd4ae	0.1990535
3	0xbeb3fd78	-0.3515432
4	0xbe65808f	-0.22412322
5	0x3e8d7230	0.2762618
6	0x3ebfb95e	0.3744611
7	0xbe22c0c2	-0.15893844
8	0x3eb33e58	0.35008502
9	0x3ed0ab6a	0.4075578
10	0xbdf5a045	-0.119934596
11	0x3dc47ac1	0.09593726
12	0xbeae8248	-0.34083772
13	0xbe979923	-0.29609022
14	0xbe9310ad	-0.2872366
15	0x3d602bc3	0.054729234
16	0xbdf933c4	-0.12168077
17	0x3cf8d686	0.03037573
18	0x3cba07ea	0.022708852
19	0x3eccd43b	0.4000567
20	0xbde2aae3	-0.1106775
21	0xbe8d06dc	-0.27544296
22	0xbdfba90e	-0.12288104
23	0xbe96a976	-0.29426163

out.0.bias f4 [3]
0	0xbd9bb7f4	-0.07603446
1	0x3e86e849	0.26349095
2	0x3e0112a0	0.12604761
