encoderclassifier.pt (torch, 14911 bytes, 30 tensors)

autoencoder.IN.0.weight f4 [8, 3, 3, 3]
-0.15085563 0.053460095 -0.17851457 0.015153821 -0.07733011 -0.19710758 0.026799649 -0.10312584
-0.12808415 -0.07156046 0.11158027 0.09912614 0.023806648 0.053237177 0.09631527 0.030948538
0.10867654 0.076973684 -0.07740985 -0.007263862 0.116366476 0.15942547 -0.1334717 -0.047102753
-0.10624685 0.17344433 0.1942258 -0.03534284 -0.027384391 0.021247817 0.010248058 -0.052309323
-0.13401091 -0.163107 -0.041689336 -0.0012288345 0.055130683 -0.15783127 0.17688699 -0.11081055
-0.05542818 0.18037179 -0.050183993 -0.18004768 0.09008988 -0.06458389 0.16772309 -0.07508602
-0.13362825 -0.13549641 0.00746506 -0.048707362 0.1405575 0.004658121 -0.10159881 0.026690204
-0.13149403 0.085738614 0.086339466 -0.13600487 -0.02959107 -0.021972166 0.013416547 -0.069085926
0.044660114 -0.18407111 0.059158977 -0.17623645 0.12171837 -0.10988457 -0.19735575 0.089981124
0.11246782 -0.11007689 0.12499226 -0.029461052 0.016417088 -0.06659251 -0.093705475 -0.129105
-0.22612403 0.10301486 0.05564275 0.13317955 -0.2575428 0.10653332 0.06139957 -0.021059563
-0.16304173 0.057007626 0.16870266 0.21024244 -0.15640152 0.04749323 0.049450267 -0.22900313
0.15616298 0.078357905 -0.21129036 -0.09014053 0.07897123 0.19783454 0.109581776 0.04078336
-0.024045132 -0.1867912 0.09260178 0.08107737 -0.14088911 -0.02825656 0.1970713 -0.075119875
-0.11503439 0.13010992 0.09790873 0.1867638 -0.057112765 0.008375738 0.019672686 0.13416573
0.07083718 0.020685986 -0.043885697 -0.055691075 -0.11648372 0.0736291 0.13208081 -0.122443825
-0.15542537 0.10993122 -0.002180184 -0.117155656 0.10034826 -0.18047418 -0.117071465 -0.09182228
-0.01666794 0.021382838 0.057380356 -0.08909413 -0.018124063 -0.12473403 -0.15601635 0.046827562
0.14131674 0.17183031 -0.15581153 0.102630906 -0.043754015 0.022088503 0.030612035 0.18120094
0.18420911 -0.15417618 0.028113738 0.09816863 0.06570542 0.0029038207 -0.077805504 -0.09467177
-0.16908771 0.0044200183 -0.11273061 0.0039705825 -0.11815748 0.121158965 -0.17569196 0.15259424
-0.10669433 -0.0066240197 -0.08053724 0.0555373 0.099970385 0.14099635 -0.13892718 0.12348775
0.16276626 -0.124922976 0.10756853 0.091805235 0.11653227 0.165428 0.009646173 -0.046148896
-0.06485864 0.06333603 0.012532049 -0.09891112 0.054257587 0.11207952 -0.0003167175 0.11164857
-0.08915257 0.121028244 0.009289467 -0.09832647 0.055584557 0.049453706 -0.08231731 -0.039129402
0.09038207 -0.19769397 0.031235032 -0.0071489736 -0.19612005 -0.07241835 0.0006965838 0.1585764
0.17532068 -0.08793551 -0.106658414 0.12074205 0.21505558 0.13072543 0.051860522 0.14355375
00000000: e679 1abe f9f8 5a3d 86cc 36be bb47 783c
00000010: 405f 9ebd 92d6 49be f08a db3c a433 d3bd
00000020: 7e28 03be 4a8e 92bd 3284 e43d a502 cb3d
00000030: 2906 c33c 3a0f 5a3d f140 c53d ca87 fd3c
00000040: ce91 de3d 61a4 9d3d 0e89 9ebd b105 eebb
00000050: 8c51 ee3d 6e40 233e ceac 08be d1ee 40bd
00000060: f397 d9bd 649b 313e 21e3 463e a7c3 10bd
00000070: 3b55 e0bc e70f ae3c 78e7 273c 4d42 56bd
00000080: 283a 09be 8505 27be 70c2 2abd d810 a1ba
00000090: b6d0 613d 859e 21be dd21 353e a4f0 e2bd
000000a0: a908 63bd 62b3 383e bb8d 4dbd 6b5e 38be
000000b0: 0b81 b83d 8f44 84bd 9abf 2b3e b3c6 99bd
000000c0: d8d5 08be 92bf 0abe 769d f43b 5f81 47bd
000000d0: 4eee 0f3e 27a3 983b 0913 d0bd 6aa5 da3c
000000e0: 5fa6 06be ba97 af3d bfd2 b03d dc44 0bbe
000000f0: f968 f2bc f9fe b3bc 14d1 5b3c ec7c 8dbd
00000100: 86ed 363d 237d 3cbe af50 723d 5477 34be
00000110: 7b47 f93d 290b e1bd a017 4abe 0648 b83d
00000120: 8755 e63d fe6f e1bd f1fb ff3d 4e58 f1bc
00000130: 217d 863c a761 88bd a8e8 bfbd 1a34 04be
00000140: 0f8d 67be 74f9 d23d a7e9 633d 3860 083e
00000150: a6dc 83be 242e da3d 1e7e 7b3d 1b85 acbc
00000160: 69f4 26be d480 693d 64c0 2c3e cb49 573e
00000170: b827 20be 4388 423d 5d8c 4a3d cc7f 6abe
00000180: 30e9 1f3e 1c7a a03d 805c 58be 999b b8bd
00000190: abbb a13d 2395 4a3e 696c e03d 740c 273d
000001a0: 4cfa c4bc 3146 3fbe 01a6 bd3d e40b a63d
000001b0: 3c45 10be 4d7a e7bc 0fcd 493e 73d8 99bd
000001c0: 2697 ebbd 893b 053e 5f84 c83d 023f 3f3e
000001d0: 13ef 69bd 643a 093c 9d28 a13c be62 093e
000001e0: 1513 913d a875 a93c 7dc1 33bd 531c 64bd
000001f0: 048f eebd dbca 963d 3140 073e d4c3 fabd
00000200: d427 1fbe 9f23 e13d 6be1 0ebb 4eef efbd
00000210: 6383 cd3d 39ce 38be 2ac3 efbd 520d bcbd
00000220: 348b 88bc 102b af3c aa07 6b3d fc76 b6bd
00000230: ea78 94bc 8e74 ffbd c0c2 1fbe 42ce 3f3d
00000240: 56b5 103e 49f4 2f3e 0f8d 1fbe 2730 d23d
00000250: 6937 33bd f3f2 b43c 17c6 fa3c bd8c 393e
00000260: 50a1 3c3e 5ce0 1dbe c84e e63c a20c c93d
00000270: 9090 863d 074e 3e3b 7e58 9fbd 46e3 c1bd
00000280: 5425 2dbe cdd5 903b 4edf e6bd a91b 823b
00000290: 8dfc f1bd 3122 f83d 98e8 33be aa41 1c3e
000002a0: 8f82 dabd 4e0e d9bb b5f0 a4bd 147b 633d
000002b0: 46bd cc3d 5961 103e ed42 0ebe 25e7 fc3d
000002c0: 33ac 263e 9ed7 ffbd e44c dc3d 6204 bc3d
000002d0: 79a8 ee3d f565 293e fb0a 1e3c a006 3dbd
000002e0: 9bd4 84bd 52b6 813d 3953 4d3c ea91 cabd
000002f0: 343d 5e3d f389 e53d 1a0d a6b9 01a8 e43d
00000300: 9f95 b6bd a8dd f73d d932 183c 635f c9bd
00000310: a2ac 633d f88f 4a3d fa95 a8bd 2746 20bd
00000320: 3c1a b93d 4a70 4abe 9ce0 ff3c f041 eabb
00000330: b2d3 48be 1250 94bd f39a 363a da61 223e
00000340: 4487 333e 8817 b4bd ba6f dabd 9c47 f73d
00000350: 8837 5c3e e3dc 053e b36b 543d c1ff 123e

autoencoder.IN.0.bias f4 [8]
-0.018947447 3.2772015e-05 -0.07360334 -0.040650338 -0.050471768 -0.089409694 0.0027025554 0.001640417
00000000: ad37 9bbc af74 0938 59bd 96bd f880 26bd
00000010: 7cbb 4ebd 6e1c b7bd 5b1d 313b 4303 d73a

autoencoder.IN.1.weight f4 [8]
1.0727218 0.95383304 1.0022173 0.9609189 0.96611834 0.9921896 1.0260427 0.9479031
00000000: f34e 893f 672e 743f a848 803f c8fe 753f
00000010: 8853 773f 2300 7e3f 5e55 833f c7a9 723f

autoencoder.IN.1.bias f4 [8]
0.040453997 -0.01664513 -0.008339444 -0.055129413 0.024596136 0.058354106 0.05788745 -0.052948773
00000000: 17b3 253d 5e5b 88bc 2aa2 08bc 61cf 61bd
00000010: d67d c93c b704 6f3d 641b 6d3d d0e0 58bd

autoencoder.IN.1.running_mean f4 [8]
0.11029766 -0.020950768 -0.18775842 0.043231256 -0.14616333 -0.10475713 0.115195625 0.16306242
00000000: bde3 e13d f2a0 abbc be43 40be 4213 313d
00000010: d7ab 15be e88a d6bd afeb eb3d d6f9 263e

autoencoder.IN.1.running_var f4 [8]
0.109323926 0.30277407 0.804895 0.27804548 0.052277774 0.009970802 0.22496508 0.41096172
00000000: 39e5 df3d 3405 9b3e 990d 4e3f fa5b 8e3e
00000010: 3821 563d 935c 233c 3f5d 663e 9369 d23e

autoencoder.residual_conv.weight f4 [8, 8, 1, 1]
0.11015237 0.26532075 -0.26243082 -0.1471411 0.23394918 -0.36614278 0.2234514 0.06773754
-0.3301068 0.047940593 0.006463693 0.011842771 -0.103942715 0.09551871 0.21235567 0.19005579
-0.09326973 -0.33753535 0.34696284 0.02328 0.28763273 0.09880007 -0.058728993 0.12932454
0.21891524 0.041494396 0.09244787 -0.056425188 0.21889238 0.09795508 -0.07827763 0.30034
0.2716627 0.2428481 0.043076128 0.07448936 -0.103898704 0.21197467 -0.2386835 -0.315424
0.124516174 -0.404808 0.04178487 -0.10747732 0.014887983 -0.17197643 0.28739536 -0.23914653
0.055988345 -0.018206708 -0.38380015 0.2462838 0.000889312 -0.21354114 -0.36838627 0.14969948
0.3816215 -0.05614063 -0.095983654 -0.28305748 0.15089492 -0.10964617 -0.089662574 0.21495955
00000000: 9197 e13d 1fd8 873e 555d 86be 28ac 16be
00000010: 6090 6f3e 1177 bbbe 72d0 643e fbb9 8a3d
00000020: c203 a9be 5b5d 443d 63cd d33b 2f08 423c
00000030: ebdf d4bd 509f c33d c473 593e fc9d 423e
00000040: 3304 bfbd 6fd1 acbe 1da5 b13e b3b5 be3c
00000050: 9944 933e b157 ca3d d08d 70bd a76d 043e
00000060: 512b 603e 07f6 293d 4f55 bd3d 191e 67bd
00000070: 5325 603e ac9c c83d 0650 a0bd 2ac6 993e
00000080: 6017 8b3e 2cad 783e 9870 303d e18d 983d
00000090: d8c8 d4bd e30f 593e 7369 74be 417f a1be
000000a0: 5602 ff3d ff42 cfbe 9d26 2b3d 121d dcbd
000000b0: baec 733c 971a 30be 7c25 933e d4e2 74be
000000c0: 0954 653d 3c26 95bc 7481 c4be d231 7c3e
000000d0: b820 693a 87aa 5abe 209d bcbe d24a 193e
000000e0: e563 c33e b8f3 65bd 1493 c4bd e9ec 90be
000000f0: 3384 1a3e 2c8e e0bd 03a1 b7bd 5b1e 5c3e

autoencoder.residual_conv.bias f4 [8]
0.21821293 0.09248762 -0.019898526 0.42161995 -0.018478364 0.14124185 -0.14009497 -0.27927786
00000000: 3673 5f3e 266a bd3d 3c02 a3bc 92de d73e
00000010: f05f 97bc b4a1 103e 0e75 0fbe 82fd 8ebe

autoencoder.block.0.depthwise.weight f4 [8, 1, 3, 3]
0.018208846 -0.20803657 0.13630502 -0.29474974 -0.3380101 -0.14472477 0.19669518 -0.29837796
-0.16368233 0.020535037 -0.09713172 0.17928259 0.34330478 0.23274222 -0.0322342 -0.19488668
-0.21438567 -0.036075708 -0.09390061 -0.24768992 0.07358321 -0.113077536 0.10155603 -0.18765107
-0.009526576 -0.09080879 0.20074017 -0.30385077 -0.14733438 0.046479356 -0.06693916 0.0076469546
0.20949267 0.06054864 0.04909539 0.0792718 -0.13911107 -0.13016613 0.1623406 0.05738883
0.21825264 -0.058191806 0.29705316 0.21804816 -0.1373963 -0.1809875 0.035160583 -0.27369493
-0.18310776 0.047088433 -0.014627292 0.10458084 -0.18161045 0.26976883 -0.20636405 -0.18779895
0.19984408 -0.10603097 0.05279828 -0.09141683 -0.25730485 -0.038456276 0.14101796 0.15642266
0.18799284 -0.06033636 0.19205308 0.043906406 -0.020537551 -0.010879956 -0.053930137 0.095593624
00000000: b82a 953c 8a07 55be 8b93 0b3e 70e9 96be
00000010: a90f adbe bb32 14be 766a 493e ffc4 98be
00000020: 579c 27be 1839 a83c ffec c6bd db95 373e
00000030: a5c5 af3e fa53 6e3e 0208 04bd 6090 47be
00000040: eb87 5bbe 1fc4 13bd f74e c0bd 6da2 7dbe
00000050: cbb2 963d 3295 e7bd 9cfc cf3d 9a27 40be
00000060: 5b15 1cbc f5f9 b9bd d58e 4d3e 5492 9bbe
00000070: d3de 16be 2361 3e3d 6617 89bd 4e93 fa3b
00000080: 3f85 563e da01 783d 3f18 493d 4159 a23d
00000090: 2273 0ebe 454a 05be 9d3c 263e 8d10 6b3d
000000a0: 9f7d 5f3e 885a 6ebd 5a17 983e 0448 5f3e
000000b0: 9eb1 0cbe ca54 39be 8b04 103d be21 8cbe
000000c0: 9a80 3bbe cddf 403d 4fa7 6fbc 7b2e d63d
000000d0: 17f8 39be 241f 8a3e 1951 53be 5e4e 40be
000000e0: eda3 4c3e c426 d9bd 0243 583d bf38 bbbd
000000f0: 76bd 83be 5484 1dbd 0367 103e 432d 203e
00000100: 3281 403e 4223 77bd 90a9 443e 34d7 333d
00000110: 5e3e a8bc d841 32bc d9e5 5cbd 97c6 c33d

autoencoder.block.0.pointwise.weight f4 [8, 8, 1, 1]
0.029989842 0.28393033 -0.08085764 -0.17537284 0.031004958 -0.17060836 0.2868457 0.24931934
0.073530465 -0.086754635 0.04047158 0.1202038 -0.2996262 -0.14352524 -0.24382743 -0.2573912
-0.27108 -0.23673572 0.26155117 0.19174302 -0.24594015 -0.26620522 0.30581632 0.05933277
0.2035675 0.07358915 -0.13554847 -0.2217563 0.1712056 -0.36147714 -0.24855722 0.06498324
-0.14420874 0.021928068 0.12776874 -0.1765004 -0.15133874 -0.20262551 -0.32867026 -0.004992527
0.32681394 -0.013990382 0.175073 -0.17869304 -0.030110097 -0.23437555 -0.026356498 0.077920035
-0.13622725 0.36259612 0.060718466 0.22597618 0.3057097 0.13968438 -0.052690186 0.18197057
0.3345041 -0.24986611 -0.070485584 0.23231295 -0.14285317 -0.30426905 -0.18907464 -0.20623474
00000000: 42ad f53c 515f 913e b198 a5bd f094 33be
00000010: 1cfe fd3c f5b3 2ebe 71dd 923e 924d 7f3e
00000020: 2497 963d 6aac b1bd 87c5 253d 692d f63d
00000030: 9b68 99be 48f8 12be e6ad 79be c8c8 83be
00000040: ffca 8abe d96a 72be 09ea 853e 4858 443e
00000050: bcd7 7bbe 0d4c 88be f593 9c3e eb06 733d
00000060: 0074 503e e9b5 963d 38cd 0abe 1514 63be
00000070: 8550 2f3e 8813 b9be c985 7ebe ef15 853d
00000080: 75ab 13be 7ea2 b33c cfd5 023e 85bc 34be
00000090: 8bf8 1abe 107d 4fbe 7847 a8be 5a98 a3bb
000000a0: 2854 a73e ea37 65bc 5646 333e 4ffb 36be
000000b0: 73a9 f6bc 2500 70be 95e9 d7bc 8a94 9f3d
000000c0: 287f 0bbe 33a6 b93e edb3 783d 4d66 673e
000000d0: fb85 9c3e 6c09 0f3e aad1 57bd 7e56 3a3e
000000e0: 1f44 ab3e e7dc 7fbe bf5a 90bd 72e3 6d3e
000000f0: 1a48 12be 27c9 9bbe c89c 41be 332f 53be

autoencoder.block.1.weight f4 [8]
0.93121034 0.989685 1.0382615 0.9568224 0.9882337 1.0155096 0.9840435 1.0490249
00000000: cd63 6e3f ff5b 7d3f c1e5 843f 50f2 743f
00000010: e2fc 7c3f 38fc 813f 46ea 7b3f 7346 863f

autoencoder.block.1.bias f4 [8]
-0.0026518055 0.026949083 0.051204372 0.043512776 -0.04126639 -0.05595241 -0.0070240474 0.014172716
00000000: eac9 2dbb 53c4 dc3c adbb 513d 743a 323d
00000010: f206 29bd 5b2e 65bd fb29 e6bb ae34 683c

autoencoder.block.1.running_mean f4 [8]
0.030635627 -0.07400713 0.010466113 0.07277141 0.116628736 -0.122885756 0.15208577 -0.14367047
00000000: 91f7 fa3c 0d91 97bd 0f7a 2b3c 2d09 953d
00000010: 0cdb ee3d 87ab fbbd 5fbc 1b3e 5a1e 13be

autoencoder.block.1.running_var f4 [8]
0.011584415 0.00837364 0.05509748 0.040848263 0.045384843 0.055196032 0.027932659 0.06279804
00000000: 8fcc 3d3c 9731 093c e5ad 613d 8250 273d
00000010: 75e5 393d 3c15 623d 08d3 e43c 429c 803d

autoencoder.block.3.depthwise.weight f4 [8, 1, 3, 3]
0.11587827 0.1871381 -0.03450215 -0.24814755 0.03033514 0.086866625 -0.124957725 0.12741789
-0.14608572 0.10846136 0.1903639 0.21342552 -0.020778665 0.26866508 -0.004349246 -0.23380578
0.30698904 0.31761992 0.18139859 0.31308937 0.22363923 0.16361748 0.24756697 -0.2157686
0.020635288 -0.08692499 0.14940165 -0.21752594 0.04568831 0.12484859 -0.102342576 -0.120696045
-0.24497114 0.081097156 -0.22667372 -0.072327495 0.0035727741 0.056620814 -0.29903927 0.06854802
-0.15421493 -0.04822118 -0.22959906 -0.25077462 0.036040958 0.09216035 0.3149955 0.29645023
0.2626831 0.1465364 0.20885585 0.18325761 -0.24463326 0.28690362 -0.017187933 -0.13855982
-0.15434235 0.22060011 0.18832931 -0.07151353 -0.13011605 -0.20558903 0.17017941 -0.25674042
-0.24927507 -0.2662957 0.037089944 0.17753124 0.0051619047 0.11258718 -0.3225938 -0.2602482
00000000: 9651 ed3d 21a1 3f3e 2052 0dbd 641a 7ebe
00000010: 6681 f83c 21e7 b13d d6e9 ffbd d679 023e
00000020: 7f97 15be fd20 de3d c1ee 423e 388c 5a3e
00000030: 0538 aabc 788e 893e 1f84 8ebb c86a 6fbe
00000040: ab2d 9d3e 149f a23e 8dc0 393e 404d a03e
00000050: af01 653e 578b 273e 3282 7d3e 72f2 5cbe
00000060: 560b a93c bb05 b2bd bffc 183e 1fbf 5ebe
00000070: aa23 3b3d 9eb0 ff3d fc98 d1bd 7d2f f7bd
00000080: b7d9 7abe 4416 a63d 281d 68be 7020 94bd
00000090: 3425 6a3b 3aeb 673d ad1b 99be e862 8c3d
000000a0: 85ea 1dbe 9283 45bd 041c 6bbe 8865 80be
000000b0: af9f 133d 91be bc3d 1747 a13e 53c8 973e
000000c0: 667e 863e a30d 163e 4fde 553e e2a7 3b3e
000000d0: 2481 7abe 08e5 923e b5cd 8cbc a0e2 0dbe
000000e0: ec0b 1ebe ffe4 613e 66d9 403e b075 92bd
000000f0: 243d 05be ee85 52be 8343 2e3e 7b73 83be
00000100: f741 7fbe e957 88be a0eb 173d c0ca 353e
00000110: 3225 a93b 1c94 e63d 042b a5be 413f 85be

autoencoder.block.3.pointwise.weight f4 [8, 8, 1, 1]
-0.2251468 -0.27190205 -0.13121034 -0.13209358 -0.08228254 -0.279056 0.11110059 0.059166163
-0.010808171 0.11951856 -0.39994848 -0.091943346 0.04896242 -0.32298663 0.1482754 -0.2840589
0.21586744 0.37983105 0.01660385 -0.12820153 0.25927946 -0.23032242 0.0029608656 0.23532644
0.28754917 -0.025868028 0.04513879 -0.036096133 -0.36230907 0.054651234 -0.30303672 0.073885396
-0.071823455 0.18865098 -0.17015532 0.26743677 -0.06101884 -0.0660742 -0.3625609 0.3097377
0.07568866 -0.25659242 0.038442776 0.149923 -0.05093056 0.34258482 0.20261534 -0.09653165
0.28698373 0.25981382 -0.066078 -0.07014501 0.10952972 -0.09490836 0.19143987 -0.39501312
-0.16387977 0.17149268 -0.37892142 -0.08685475 -0.17133625 0.16988549 0.026592413 -0.2663647
00000000: e28c 66be bf36 8bbe 015c 06be 8a43 07be
00000010: c083 a8bd 6ee0 8ebe b588 e33d 3858 723d
00000020: c114 31bc 26c6 f43d 0cc6 ccbe cb4c bcbd
00000030: d28c 483d 815e a5be 82d5 173e 2b70 91be
00000040: 5b0c 5d3e 3779 c23e cc04 883c 4347 03be
00000050: 47c0 843e a4d9 6bbe 150b 423b 6af9 703e
00000060: a539 933e 30e9 d3bc 74e3 383d 8ad9 13bd
00000070: 9380 b9be f9d9 5f3d a127 9bbe 3a51 973d
00000080: 2d18 93bd b92d 413e 323d 2ebe 79ed 883e
00000090: e4ee 79bd e951 87bd 95a1 b9be f195 9e3e
000000a0: a802 9b3d 1560 83be 2c76 1d3d 6a85 193e
000000b0: 909c 50bd 4767 af3e 657a 4f3e 63b2 c5bd
000000c0: 88ef 923e 5106 853e e753 87bd 30a8 8fbd
000000d0: 1e51 e03d 505f c2bd d008 443e 293f cabe
000000e0: 19d0 27be c79b 2f3e fd01 c2be e7e0 b1bd
000000f0: c572 2fbe 76f6 2d3e 55d8 d93c f460 88be

autoencoder.block.4.weight f4 [8]
0.90652096 0.9326375 1.0641377 0.9337492 0.96262616 1.0477909 1.0468988 0.94697046
00000000: c211 683f 55c1 6e3f aa35 883f 300a 6f3f
00000010: ab6e 763f 031e 863f c800 863f a86c 723f

autoencoder.block.4.bias f4 [8]
-0.06674428 -0.07907438 0.11588745 -0.029872114 -0.017307403 0.06757936 -0.046143793 -0.07735689
00000000: 3ab1 88bd c0f1 a1bd 6656 ed3d 5db6 f4bc
00000010: 41c8 8dbc 0c67 8a3d 4601 3dbd 4a6d 9ebd

autoencoder.block.4.running_mean f4 [8]
-0.241474 -0.15803309 -0.059522655 0.120392665 -0.16675738 0.07107652 0.1401175 0.1642915
00000000: f644 77be 6dd3 21be 07ce 73bd 6e90 f63d
00000010: 72c2 2abe 9190 913d f67a 0f3e 083c 283e

autoencoder.block.4.running_var f4 [8]
0.031061493 0.08794083 0.03682362 0.04613456 0.02417581 0.026025377 0.054094195 0.09621417
00000000: ac74 fe3c 521a b43d 5dd4 163d 98f7 3c3d
00000010: 590c c63c 2c33 d53c e091 5d3d ef0b c53d

autoencoder.block2.0.depthwise.weight f4 [8, 1, 3, 3]
0.21963714 -0.16272245 -0.051861838 0.08442828 -0.17706391 -0.02074577 -0.06063061 0.0026628198
-0.060717374 0.1799533 -0.124274775 -0.1584026 0.10632714 0.10325015 0.05446587 -0.02523695
0.27145988 -0.13572195 -0.30981526 -0.36372024 -0.0011991253 0.049935088 -0.07217767 -0.36121735
-0.3251556 -0.3056035 0.11553696 -0.0047692885 -0.21902457 -0.35804307 0.15289977 0.0018656488
0.29645318 -0.22696471 -0.21807022 0.036339056 0.1679428 0.16280597 0.27061772 0.1710508
0.12054051 -0.1884932 0.3045715 -0.13793908 0.23127049 0.21985127 -0.113995954 0.03863705
0.041007414 0.3047811 0.28148827 0.1428099 -0.11310923 0.14991952 0.30422968 -0.11654546
0.31738403 0.12248024 0.24127746 0.17472298 0.28211325 -0.1955704 0.22009826 -0.23557776
-0.014485463 0.20312867 -0.22505236 -0.21075004 -0.1460914 0.028719114 -0.026470415 -0.23874822
00000000: 8fe8 603e b7a0 26be 146d 54bd bce8 ac3d
00000010: 3e50 35be 08f3 a9bc cd57 78bd b482 2e3b
00000020: c8b2 78bd ae45 383e c683 febd 4b34 22be
00000030: 0bc2 d93d d174 d33d 9b17 5f3d b8bd cebc
00000040: cafc 8a3e b2fa 0abe 1ba0 9ebe 8a39 babe
00000050: f82b 9dba bc88 4c3d e3d1 93bd 7bf1 b8be
00000060: cb7a a6be 1078 9cbe a49e ec3d b147 9cbb
00000070: fa47 60be 6c51 b7be c291 1c3e c988 f43a
00000080: b6c8 973e 7069 68be cd4d 5fbe 43d8 143d
00000090: 33f9 2b3e 9cb6 263e 688e 8a3e f127 2f3e
000000a0: f1dd f63d 5d04 41be ccf0 9b3e e73f 0dbe
000000b0: 2cd2 6c3e b120 613e b676 e9bd e241 1e3d
000000c0: 64f7 273d 450c 9c3e 3b1f 903e c23c 123e
000000d0: d0a5 e7bd 8184 193e fec3 9b3e 63af eebd
000000e0: 2980 a23e ecd6 fa3d 7011 773e 95ea 323e
000000f0: 2671 903e 9b43 48be 7061 613e 4c3b 71be
00000100: 6f54 6dbc f600 503e 2074 66be dcce 57be
00000110: fc98 15be 5944 eb3c 7cd8 d8bc 6a7a 74be

autoencoder.block2.0.pointwise.weight f4 [8, 8, 1, 1]
0.03478991 -0.09690723 -0.1631194 0.028269503 0.11493035 0.0221242 -0.22302163 0.25946084
0.0931211 -0.08734734 0.31168497 0.01589865 0.106102 0.3317528 0.012026795 0.22235648
0.052179605 0.24229187 0.113948084 0.16882676 0.07660924 -0.14233747 0.34858724 0.007603271
0.13103458 -0.207975 -0.13832258 0.21940963 -0.20742336 -0.0060699293 0.37673816 -0.3168242
-0.010691409 0.009849065 0.28075528 -0.23659109 -0.24562965 -0.090001784 0.028561093 -0.2813796
-0.21266578 -0.060417354 0.1612473 -0.14257197 -0.14986588 0.2483379 -0.2425294 -0.23882401
-0.03238377 0.28277475 -0.14178088 -0.1530306 -0.21254842 -0.051198184 0.3406147 0.082343
-0.09572824 -0.26588815 -0.2629437 0.09158192 0.33934808 0.1124097 -0.016161844 0.17217022
00000000: dd7f 0e3d 4c77 c6bd c608 27be 7295 e73c
00000010: 9a60 eb3d cf3d b53c c85f 64be 0dd8 843e
00000020: 46b6 be3d 2ae3 b2bd 2c95 9f3e e33d 823c
00000030: 014c d93d 81db a93e 090c 453c 6bb1 633e
00000040: 48ba 553d 5c1b 783e 9d5d e93d ece0 2c3e
00000050: 4ee5 9c3d eac0 11be 077a b23e dc24 f93b
00000060: ee2d 063e 66f7 54be 6fa4 0dbe ebac 603e
00000070: ca66 54be 42e6 c6bb d3e3 c03e c836 a2be
00000080: 052b 2fbc f95d 213c 28bf 8f3e ef44 72be
00000090: 5786 7bbe db52 b8bd f4f8 e93c fd10 90be
000000a0: 0fc5 59be 3078 77bd 031e 253e 63fe 11be
000000b0: 7176 19be 4a4c 7e3e a159 78be 488e 74be
000000c0: d8a4 04bd dac7 903e 022f 11be 0eb4 1cbe
000000d0: 4ba6 59be 30b5 51bd 0d65 ae3e 72a3 a83d
000000e0: 2b0d c4bd 7e22 88be 8fa0 86be 4d8f bb3d
000000f0: 08bf ad3e 0f37 e63d d865 84bc 644d 303e

autoencoder.block2.1.weight f4 [8]
1.1151844 1.0638012 0.9633083 1.1239944 1.0829409 1.0980312 1.1078289 1.120207
00000000: 5dbe 8e3f a32a 883f 5f9b 763f 0cdf 8f3f
00000010: cf9d 8a3f 498c 8c3f 56cd 8d3f f162 8f3f

autoencoder.block2.1.bias f4 [8]
0.10914259 0.0064797727 -0.053285785 0.11903544 0.028886328 0.057132456 0.10983067 0.12075561
00000000: 2686 df3d 4654 d43b 3242 5abd dac8 f33d
00000010: 05a3 ec3c b903 6a3d e7ee e03d b84e f73d

autoencoder.block2.1.running_mean f4 [8]
0.060901392 -0.26102075 -0.102856666 0.25002062 -0.4609705 -0.09919787 0.4124939 0.6173765
00000000: bd73 793d 83a4 85be 84a6 d2bd b402 803e
00000010: 5304 ecbe 4128 cbbd 6732 d33e 630c 1e3f

autoencoder.block2.1.running_var f4 [8]
0.06716698 0.16806442 0.08901058 0.3442631 0.17460258 0.21779345 0.16633178 0.16916627
00000000: d78e 893d 1419 2c3e 2e4b b63d 4143 b03e
00000010: 05cb 323e 3f05 5f3e e152 2a3e ec39 2d3e

autoencoder.projector.weight f4 [8, 8]
-0.09463944 0.12254321 0.082832426 -0.18932372 0.19468328 0.13255379 0.0034672678 -0.18834633
0.29578006 -0.3465721 0.31363314 -0.1977918 -0.25067946 -0.24688834 0.062033106 0.0513779
-0.45909896 0.12638143 0.18649866 0.45943436 -0.31932396 -0.36573794 0.17923075 0.31990203
0.113567024 0.18437119 0.05922845 0.25776884 -0.08773404 -0.2815423 -0.26438025 -0.33506522
-0.03299357 0.38498065 0.14907381 -0.33340907 0.18009904 0.4028118 -0.09717973 -0.17090549
-0.07240939 -0.0318815 0.35974917 0.0025982046 -0.07945207 0.124433264 -0.036910534 -0.038909767
-0.0006483879 0.29098922 -0.04701501 -0.11273091 -0.25852597 0.2500817 -0.08569452 -0.243188
-0.42172348 -0.25677425 -0.13834222 0.18810368 0.18890111 -0.15781 0.3073741 -0.010638782
00000000: 53d2 c1bd eff7 fa3d 0ca4 a93d 14de 41be
00000010: 0e5b 473e 2ebc 073e 1a3b 633b dcdd 40be
00000020: 7c70 973e e671 b1be 8694 a03e ef89 4abe
00000030: 0f59 80be 4cd0 7cbe 6d16 7e3d a271 523d
00000040: 050f ebbe 226a 013e 81f9 3e3e fb3a eb3e
00000050: 6e7e a3be 0142 bbbe 4488 373e 33ca a33e
00000060: d495 e83d cdcb 3c3e 8899 723d 47fa 833e
00000070: e8ad b3bd 5026 90be d95c 87be ab8d abbe
00000080: 4424 07bd 2f1c c53e cea6 183e 98b4 aabe
00000090: e26b 383e 593d ce3e 2b06 c7bd d901 2fbe
000000a0: 604b 94bd 2d96 02bd 0b31 b83e a446 2a3b
000000b0: c4b7 a2bd ded6 fe3d 802f 17bd d95f 1fbd
000000c0: 93f8 29ba 8afc 943e d092 40bd 77df e6bd
000000d0: 845d 84be b50a 803e 9c80 afbd 4606 79be
000000e0: 24ec d7be ea77 83be 95a9 0dbe 409e 403e
000000f0: 4b6f 413e f298 21be 2360 9d3e 494e 2ebc

autoencoder.projector.bias f4 [8]
-0.25303638 -0.25998402 -0.29169247 0.18193223 0.15953065 0.4283514 -0.09946286 0.07650608
00000000: fc8d 81be a01c 85be b758 95be 714c 3a3e
00000010: 015c 233e e050 db3e 2fb3 cbbd 38af 9c3d

classifier.fc.0.weight f4 [4, 8]
-0.04339242 0.34994045 -0.28191808 -0.09600052 -0.3389946 0.03491491 -0.2752511 -0.24796015
0.08176416 0.35176346 0.29468462 0.24291292 -0.0875065 -0.010674447 -0.31783792 0.23766539
0.09659833 0.30009863 -0.3437137 -0.08622146 -0.22770002 -0.27056956 -0.21019311 0.111697406
0.2350361 0.15966341 -0.121099696 0.15595838 0.34822968 0.017289728 -0.12722823 -0.2791771
00000000: 40bc 31bd 652b b33e 9157 90be ec9b c4bd
00000010: b390 adbe f002 0f3d b6ed 8cbe 44e9 7dbe
00000020: f873 a73d 571a b43e e7e0 963e 2abe 783e
00000030: 9c36 b3bd e0e3 2ebc a7bb a2be 8e5e 733e
00000040: 58d5 c53d 87a6 993e 3efb afbe e094 b0bd
00000050: 322a 69be 1888 8abe dd3c 57be 9cc1 e43d
00000060: 4ead 703e ce7e 233e 1e03 f8bd 8eb3 1f3e
00000070: 294b b23e 30a3 8d3c 1e48 02be 4df0 8ebe

classifier.fc.0.bias f4 [4]
0.24992654 -0.080798805 -0.27738333 0.204456
00000000: beec 7f3e d879 a5bd 3005 8ebe ea5c 513e
